model_i.pth (torch, 105309 bytes, 4 tensors)

weight f4 [32, 784]
00000000: 5e0b e3bc 0af5 dbbb a1de e23c 2e1f 3fbc
00000010: 3147 b0bc 511b bd3c dec5 92bc 8ecb cebc
00000020: 577f 07bc 73ba 2c3c dacb cc3c 7e83 c93c
00000030: 3a0d bdbc 4ae8 9b3a 9316 ffbc ae4c 843c
00000040: ca89 4dbb 1e0d aa3c c1d1 3a3c 7abd 92bc
00000050: 38d2 fb3c 4041 28bc c823 ed3c 57a5 d43c
00000060: 61d6 7dbc eafb 053c c579 1b3c 4c7b 833c
00000070: 9e71 f6bc 9390 24bb 35af ecbc b560 ea3c
00000080: c51f b43c 730c 033c 3764 d3bb dc86 72b9
00000090: 378b a93c 1726 903c 17f7 a5bc 1413 0ebd
000000a0: ea37 f3bc cecd f6bc d736 5abc 8ccf 983c
000000b0: 534b 033c 1ce3 debb 8a55 803c 5cf7 973b
000000c0: df07 0e3d 6539 8e3c 988e e7bc ca2f 663b
000000d0: dab8 92bc 9e80 8b3c 4ef6 25bc 8318 a1bc
000000e0: c0cc 873c e39d 063d ec75 813c 730f d83c
000000f0: 1310 fd3b 2168 54bc 0ad5 e83c 4e3e 373c
00000100: e06c a1bc 38a4 ebbb 4155 aebc 7059 9a3c
00000110: 3e64 9d3c 256f 783b b32d aebc f007 09bd
00000120: ca41 e13b 25f2 49bc b789 59bb 2a2a 763c
00000130: 251f 8c3b dcd9 efba b0ee 81bc ee0a 0dbd
00000140: 5352 9a3c eeb7 26bc d3c0 073d a094 a13c
00000150: 80bd 0cbc 43bd 02bd 77d0 b5bc 273f c5bc
00000160: 5c74 9c3c c554 54bc b751 9dbb 1307 f73b
00000170: dc28 c5bb dc62 d43a 5c78 d0bb 1101 dbbc
00000180: 9ccd fbbc cef8 84bc ccfe e03c 15ab 8c3c
00000190: 6562 afbc 1c8a b7bb 3ca8 0ebd 6e16 c93b
000001a0: 63bd 8cbc 0a75 babb 6e5a 50bc e28a 023d
000001b0: b722 123c 0c73 973c 8adf d6bc e8ae 02bd
000001c0: 0040 923a 2e5e 85bb c147 b33b a047 1a3c
000001d0: 6aa9 d3bc 81b4 413b 00b4 963c a5ab 72bc
000001e0: 6f21 103d d788 afbc 6d66 013d 6f96 043d
000001f0: ea15 003d 9335 cd3a 73a4 a8bc 01dc fcbc
00000200: 81be dc3c aa3e a5bc d6cb 0b3d 6e8d 483b
00000210: 5c5a f0bc 4175 bc3c a058 1c3c 4a4c e7bc
00000220: e747 c33c 076d 883c 6e51 9f3a ee4e 0fbc
00000230: fe1d ae3c d752 0cbc f31d 293c c53d 7ebc
00000240: 6d78 0c3d 4e2f e93c 4af6 5dba 25ca 003b
00000250: a1d0 78bc 3590 ca3c 41bc d3bb aab5 cdbc
00000260: 0e8d ab3c 5ccd 19bc 4108 c4bb fa01 dabc
00000270: 6e32 f03a 8a26 dcbb fcfb f7bc 2a1c 0cbd
00000280: dab1 a5bc 81f5 b2bc cf49 06bd fcb5 c43c
00000290: 655f 96bb b757 0f3b 87ed c7bc b3b2 d6bc
000002a0: 079e 8abc 8a7a 073d b721 b239 eead f23b
000002b0: 97c7 8e3c 9347 d23a 9afb 813c ac33 c3bc
000002c0: 637c eebc bd87 0c3d 02a3 11bd dc87 f03a
000002d0: 6166 fb3c 8aa9 80bc f57a 923c 8d21 02bd
000002e0: 173e 88bc 21cb cbbc 24f7 113d 9ad3 cb3c
000002f0: 5ad5 dcbc 41d5 4fbc 1c27 f9bb 5cad 52bc
00000300: f7bb 19bc 0e5a 4d3c fc60 3c3c b7eb b3bc
00000310: dee1 bf3c 4af8 333b 5c7b 4c3c 5366 d2bb
00000320: 63b0 b83c 9347 4e3b 2ef0 983c 3cbb 8b3c
00000330: b54c 913c 2537 a43b 36cc 03bd a899 0dbd
00000340: 23e0 c03c c177 dabc ee4a 71bb 1788 0abc
00000350: 95fa d43c 93a0 fcbb ee44 bcbc 00dc 8db9
00000360: fe3c a53c 4a1e 65bc 7390 ed3c 65a0 f43b
00000370: 80f3 1fbb 931d abba 4ef1 eb3c 013b 363c
00000380: 685b e3bc 0e98 0c3c 6e53 6c3c 6e45 a1ba
00000390: 93b8 18ba f35b eebc 3eeb ab3c 3e93 fabc
000003a0: 6519 1d3c c857 0dbd b71e d03b 0097 0dbd
000003b0: 4a29 f1bc 4e57 75bc 2527 0dbd 0a15 a53c
000003c0: 6e0b ae38 1a0b eebc 9372 6fba 817b b6bb
000003d0: ee5e 3ebc c0ad 09bc 0e63 d73c fae2 fd3c
000003e0: 43bf d3bc 9323 d7ba fea7 afbc 93d5 6abb
000003f0: 8a51 84bc b161 df3c dea6 c0bc 1aa1 f13c
-0.027715381 -0.0067125605 0.027694048 -0.011665149 -0.021518322 0.023084315 -0.017916616 -0.025243547
-0.008270106 0.0105425 0.024999548 0.024598833 -0.023077596 0.0011894789 -0.031138694 0.016149845
-0.0031362646 0.020758208 0.011402548 -0.017912615 0.030739889 -0.010269463 0.028947726 0.025957746
-0.015493006 0.008177737 0.009489481 0.016050003 -0.030083474 -0.0025110587 -0.028892139 0.028610567
0.021987805 0.007998574 -0.0064511555 -0.00023129157 0.020696266 0.017596288 -0.020259423 -0.034686163
-0.029689748 -0.030127432 -0.013318739 0.018653654 0.008013564 -0.006801976 0.015665788 0.004637642
0.034675475 0.017361352 -0.028266236 0.00351237 -0.01791041 0.017029103 -0.010129524 -0.019665008
0.016577125 0.032865416 0.0158033 0.026374554 0.0077228635 -0.012964279 0.028421897 0.011184288
-0.019705236 -0.0071912073 -0.021280887 0.018841475 0.019212838 0.0037908044 -0.021262025 -0.033454835
0.0068742977 -0.012325798 -0.0033193657 0.015024701 0.0042761737 -0.001829918 -0.015860885 -0.03443425
0.018838083 -0.010175688 0.033142876 0.01972419 -0.008590102 -0.031918775 -0.02219413 -0.024077965
0.019098453 -0.012959664 -0.004801001 0.007538685 -0.0060168337 0.0016203779 -0.006362004 -0.026733907
-0.03073769 -0.01623192 0.027465247 0.017171422 -0.021409223 -0.0056011807 -0.03482841 0.006136707
-0.01718015 -0.0056902217 -0.012716873 0.03187073 0.0089194095 0.018487476 -0.026229639 -0.031905085
0.001115799 -0.004070065 0.0054712 0.009416491 -0.025837619 0.0029557052 0.018396378 -0.014811431
0.035188135 -0.021427555 0.03159182 0.032370027 0.0312709 0.0015656225 -0.020586228 -0.030866625
0.026946308 -0.020171482 0.03412994 0.0030601877 -0.029339962 0.02300513 0.009542614 -0.02823462
0.023837997 0.01665355 0.0012155005 -0.008746846 0.021254536 -0.008564672 0.010322082 -0.015517657
0.034294534 0.02846494 -0.0008467181 0.0019651738 -0.01518646 0.024726966 -0.0064616506 -0.025111038
0.020941284 -0.00938734 -0.0059824293 -0.02661227 0.0018325576 -0.0067184614 -0.030271523 -0.034206547
-0.020226408 -0.021845581 -0.032785233 0.024012558 -0.0045890086 0.002187235 -0.024405254 -0.026208257
-0.016921056 0.033075847 0.00033975925 0.007405988 0.017429156 0.0016043059 0.015867043 -0.02382835
-0.029112047 0.034309138 -0.035555847 0.0018351036 0.030688467 -0.015705843 0.017880896 -0.031770278
-0.01663117 -0.024877133 0.035636082 0.024881173 -0.026957203 -0.012685121 -0.007603539 -0.012858715
-0.009383193 0.012533678 0.011497732 -0.021962984 0.023423132 0.0027461224 0.012480583 -0.0064208894
0.022545045 0.0031475767 0.018669214 0.017057054 0.017736772 0.0050114566 -0.032177173 -0.034570366
0.023544377 -0.026668431 -0.0036818343 -0.008455298 0.025998393 -0.0077095716 -0.022982087 -0.00027057528
0.020170685 -0.013984272 0.028999543 0.0074654096 -0.0024406612 -0.0013055078 0.028801586 0.011122466
-0.027753547 0.008581175 0.014424188 -0.0012304017 -0.00058258435 -0.02909658 0.020986196 -0.030587789
0.009588574 -0.034507543 0.0063513177 -0.034567833 -0.029438633 -0.014974428 -0.03446116 0.020151634
8.2990955e-05 -0.029058028 -0.00091341994 -0.005568922 -0.011619313 -0.008403242 0.02629235 0.03099202
-0.025848037 -0.00164138 -0.02144241 -0.0035832867 -0.016152162 0.027268263 -0.023517068 0.029495765

bias f4 [32]
00000000: 1528 bb3c 9ea7 eb3c bc02 6d3c 01ee 4fbc
00000010: 3edf cbbc 3e94 db3c fe45 a0bc c391 0c3d
00000020: ea88 a53c aeff 103c 25ef faba 4e1b 063c
00000030: b314 a63c 1ad0 983c 1337 1cbc d534 0b3d
00000040: 2e28 0d3c ae02 b33c 0706 9cbc 7e60 9dbc
00000050: 218b 613c 5ad1 9b3c 2e66 30bc 4a6c 0f3a
00000060: bec6 943c 8a1b adbb 7753 8d3c 9023 0f3d
00000070: e18a f0bc 4e2b 003d 93eb ed3a 0510 28bc
0.022846261 0.02876645 0.014465984 -0.012691022 -0.024886724 0.026804086 -0.019564625 0.034318697
0.020206887 0.008850021 -0.0019144757 0.008185221 0.020273542 0.018653918 -0.009534615 0.03398593
0.008615537 0.021851864 -0.019045843 -0.01921105 0.013766081 0.019020725 -0.010766549 0.00054711534
0.018161174 -0.005282824 0.017251713 0.034946024 -0.029363098 0.0312913 0.0018151872 -0.010257726

weight f4 [10, 32]
00000000: 91b9 debd e446 bd3c bd4f a0bd 716c 8dbd
00000010: 9f88 e83c bd49 353d 1e47 b5bd 5df4 43bc
00000020: 55e7 313d 9723 ed3b 7f45 27be 364f b23d
00000030: c8bb 263e c902 393d 7397 a5bd 5c51 2d3e
00000040: f766 fcbd a617 8ebd 1f43 14be d2b0 343e
00000050: ea35 81bd c01c 2cbe eb06 1bbe 4560 8c3c
00000060: e837 803d 6c62 bbbd edeb b8bd e382 003e
00000070: bf4f c23d 8ad5 69bd 8537 e5bd 2d24 aa3d
00000080: d44b bf3d c427 b03d 847a 2b3c df77 71bd
00000090: 6d0a 94bd 7070 113e 0c94 af3d 7f6c cabc
000000a0: cf9c 093e 71c4 20ba a2e1 b13d 5897 a4bc
000000b0: 6af2 203e 1166 63bc 9c90 16bd f877 063d
000000c0: 930b 0d3e cb02 163d 26d1 283d 3855 72bc
000000d0: 3528 d4bd 5ecd 16be 9237 e8bd 6f56 823d
000000e0: b25f 0f3e 3151 19be 1a81 76bd 1099 79bd
000000f0: f49e e8bd 699d 0e3e a16f 5cbd 5c21 c73d
00000100: ba9c e7bd 70a6 11be d579 22bd ac0f 333e
00000110: a6b2 b6bc ff30 e83d 4d33 54bc c5e8 cc3d
00000120: 7ae4 fe3c f78b d23d b1bf 8bbd 4528 01bd
00000130: 3677 dbbd 26a2 113e d357 33bd 4767 273e
00000140: 6c94 9abd 4f95 f03c 954b 9e3a 4fb0 ab3d
00000150: 45c0 e33c 1a52 b9bd d2b1 063d a69b f5bd
00000160: b35b ad3c dfd4 0d3e 6e7a 8d3d 01ce 6dbb
00000170: 2548 15be 1843 d3bd a399 f73d 98a3 0dbe
00000180: 5ce4 7f3d 5319 11be de7a fdbd 1e8b 863d
00000190: c0a2 733d 1c36 063e 0bb8 193e bd7c 263e
000001a0: af73 c7bd f7fa 27be 9667 253e 0e4e 07be
000001b0: 2634 a4bd 9a99 9bbd 2169 ce3d 1cd1 0dbe
000001c0: eac9 7abd 29fb e2bc 721a 21bd 368e 8cbd
000001d0: 3fbf c2bd c543 e8bd 0f1e 15be 4892 ab3d
000001e0: 6a5e aebd 808b 24be 16f0 953d 7a2d 4a3c
000001f0: deeb 083e 8c2e c83c 11aa 83bd 0c5e 2dbe
00000200: b181 523d 04cf b3bc fe6e ab3d a012 e8bc
00000210: 88e7 983c ac5a 023e da3a 013d b66f 87bd
00000220: ef46 303d 1318 d0bd 2e57 03be b9a9 683d
00000230: e7be 663d 52da 5fbd 3f86 513d b90b 333c
00000240: 3c25 b9bc 7453 073e 802e ec3d 5f32 82bd
00000250: 6b23 85bd aace 483b 8c59 1a3e a103 8c3d
00000260: d4da 8dbd 53ae 21be 686b 343e 9abb 2e3e
00000270: 5f54 efbd ba40 08be bf2d e03d 0197 343e
00000280: b6f6 e63d d65a 09be 59e1 eb3d a5ed 2abd
00000290: bf65 253e cf8a bcbd eeed dfbd b1cd e3bd
000002a0: de46 563d 9801 2d3e f0aa 143e ef51 1b3e
000002b0: 29eb d43d 7e6f 953c 7fa8 a53d 6ac6 eb3d
000002c0: ec6b e13d 7efe 1e3e 87c0 8ebd 4579 28be
000002d0: a7ee 17be a558 153d 4bdd 19bc bf33 0abe
000002e0: 41a3 a03c a0c0 053e 490b 993c aa5f 0e3d
000002f0: c201 df3d c2f2 783d 64de e23d 0b36 edbd
00000300: 6e39 b9bc 4870 963d 3d8e 39bd 95ba 8e3d
00000310: 0595 243e 27d1 213e 5d31 9c3d 3677 a7bd
00000320: 4dcf 13be ba04 19be 75b3 103e 6900 2dbe
00000330: 1355 21be 4073 69bc a151 c5bc a7ff 113d
00000340: 5eff b03d cd38 b33d 5e0b a2bd 67bc 0a3e
00000350: 6161 09be 1cca 1bbe 0353 823d 5f54 56bd
00000360: 3878 50bd e444 dc3d 2b9f fabd 7680 b1bd
00000370: 9f40 553d db60 093e 9bc7 2f3e 77f6 883d
00000380: c0b5 28bd 63cc 913d b1dd 293e 6e99 1abd
00000390: 024b 083e 91c8 2ebd e325 03be 0854 753d
000003a0: 1429 87bc 02c6 ea3d 8449 1cbb 04d8 28be
000003b0: 7a51 cdbd 9f84 0e3e 2d69 a53d bdc6 89bd
000003c0: 65ea a0bd 1859 fbbd 200b 1dbe 0404 103e
000003d0: a7d6 0ebe 2b81 d9bc 370e 27bd 48fa 043e
000003e0: 0c46 113e 5840 d1bd ee5d f53d 10e1 06bd
000003f0: 5b92 d33d 1c90 153d 9ae4 7f3d d7da 23be
-0.10875238 0.023105092 -0.07827709 -0.06905449 0.028385459 0.044259775 -0.08851455 -0.011960116
0.043433506 0.0072369087 -0.16335104 0.087065145 0.1628257 0.04516867 -0.08085527 0.16925567
-0.123243265 -0.06938104 -0.1447873 0.17645577 -0.063091114 -0.16807842 -0.15139358 0.017135749
0.06260663 -0.09149632 -0.09029374 0.1254993 0.094878666 -0.057088412 -0.1119223 0.08307681
0.09340635 0.08601335 0.010466222 -0.05895221 -0.07228551 0.14203048 0.085731596 -0.024709938
0.13438724 -0.00061327877 0.08685614 -0.020091698 0.15717474 -0.013879315 -0.036759004 0.032829255
0.13773946 0.036623757 0.041215084 -0.014790826 -0.103592314 -0.14726779 -0.11338724 0.06364142
0.14001349 -0.14972378 -0.060181715 -0.060936987 -0.11358443 0.13927235 -0.053817395 0.0972316
-0.1130919 -0.14223647 -0.03966697 0.17486447 -0.022301983 0.1133747 -0.012951684 0.10005335
0.031114805 0.102806024 -0.068236716 -0.031532545 -0.10716097 0.14222011 -0.043784928 0.16347991
-0.075478405 0.02936807 0.0012076969 0.083832376 0.027801642 -0.09048863 0.032884426 -0.11992578
0.02116189 0.13850735 0.06908117 -0.0036286118 -0.14578302 -0.103155315 0.12089851 -0.13831937
0.06247364 -0.14169817 -0.12376951 0.06569503 0.059481382 0.13106579 0.15011613 0.16258521
-0.09738862 -0.16404329 0.16152796 -0.13213369 -0.08017759 -0.075976565 0.100786455 -0.138493
-0.061227717 -0.027707653 -0.03933186 -0.06863062 -0.095091335 -0.11341051 -0.14562248 0.0837751
-0.08514102 -0.1606884 0.073211834 0.012339944 0.13371226 0.024436258 -0.06428922 -0.16930407
0.051393215 -0.021949299 0.083707795 -0.028329194 0.01866509 0.12729901 0.031550266 -0.06613104
0.043036398 -0.10160842 -0.12826225 0.056802485 0.056334402 -0.054651566 0.051153418 0.010928088
-0.022600763 0.13215429 0.11532307 -0.06357264 -0.06500896 0.003064076 0.15073222 0.0683663
-0.06926504 -0.15789156 0.17619097 0.17063752 -0.116860144 -0.13305941 0.109462254 0.17635728
0.11277525 -0.13413557 0.11517591 -0.04173054 0.16152094 -0.09206163 -0.10934053 -0.11123217
0.052313678 0.16895139 0.14518332 0.15167974 0.10396416 0.01824164 0.08088779 0.11512454
0.110069126 0.15526769 -0.069703154 -0.1645251 -0.14837132 0.03646149 -0.009391139 -0.13496302
0.019609096 0.13061762 0.018682139 0.0347592 0.10889007 0.060778387 0.11077574 -0.115825735
-0.022610392 0.07345635 -0.045301665 0.069691814 0.16072471 0.15802442 0.07626603 -0.081770346
-0.14434548 -0.1494321 0.14130957 -0.16894688 -0.1575511 -0.014248669 -0.024086775 0.0356442
0.086424574 0.08751068 -0.07912324 0.13548432 -0.13416053 -0.15213817 0.063634895 -0.052326556
-0.0508959 0.10755327 -0.1223739 -0.0866708 0.05206358 0.13415854 0.17165987 0.066876344
-0.041188955 0.07119062 0.16588475 -0.03774398 0.13309863 -0.042671744 -0.12807421 0.05989459
-0.01649908 0.11463548 -0.002384753 -0.16488653 -0.10025306 0.13917778 0.08076701 -0.067273594
-0.07857207 -0.12272853 -0.15336275 0.14064032 -0.13949071 -0.02655085 -0.04078504 0.129861
0.14186877 -0.10217351 0.11980806 -0.03292948 0.103306495 0.036514387 0.06247387 -0.1600145

bias f4 [10]
00000000: 8ac8 e83d b48f d13d 5220 84bc fd4b cdbd
00000010: d5ae 293e 3ec2 83bd 3f63 adbd 3232 bf3d
00000020: f33d dbbd 31d9 1d3e
0.11366375 0.10232487 -0.016128693 -0.10024259 0.165706 -0.06433533 -0.08466195 0.09335746
-0.10705175 0.15414883
