model_u_0.1_15_512.pth (torch, 104459 bytes, 4 tensors)

layers.0.weight f4 [32, 784]
00000000: 4c16 a3c2 6a3a 56c2 aa64 3ebf d52f a941
00000010: 72d5 bc41 430c 03c1 a5a1 4742 8edd 6641
00000020: 1490 0cc0 8188 9bc2 6ef5 d0c1 f2ea f5c0
00000030: c193 a242 9ace ec41 8a3e 7741 8b40 8842
00000040: b543 6fc1 1876 e642 4245 a242 7b45 5242
00000050: 01c3 2442 c8e1 5f42 883c 6bc1 c672 71bd
00000060: ee1b b7bf d2a1 a342 96c6 0143 a945 a43f
00000070: 8484 b642 2b19 acc2 2488 5842 ce76 413f
00000080: fb42 ab42 f33f 63c1 781f 9742 ae83 d142
00000090: 3599 3c41 fed8 11c1 2fd1 0bc2 29bf 8c42
000000a0: 6161 e9c1 4af5 4742 428a 0142 3d8e dbc0
000000b0: 4817 1042 d824 09c2 f7c5 7b42 b4d6 69c2
000000c0: fc6e f040 55e3 40c1 5e4d f741 f075 d841
000000d0: 7ffc 25c1 9e28 d642 1c1e b441 0e23 fdc0
000000e0: e2e7 5bc1 aa31 a3c1 2ed9 d0c0 567c 04c3
000000f0: dec5 4342 0c83 8041 bbf5 fd41 e105 42c2
00000100: b388 b6c0 7162 2fc2 9786 a3c1 5692 4dc2
00000110: ff11 c1c2 cfbb 9142 2627 03c2 0f17 cfc0
00000120: 86fe c6c0 1242 1a42 465e 5bc2 cfb7 acc1
00000130: 6ecd 5dc1 0c26 fc42 1c49 54c0 21fe 6841
00000140: 40dc d8c1 a6a1 fbc1 4429 d541 116d 85c1
00000150: e31e a340 57f5 47c2 2486 0742 5be5 3bc1
00000160: d474 2542 9f6a c3c2 71c5 5a42 1f62 dcc1
00000170: c777 9041 bef7 ad3f ca71 8940 3013 5742
00000180: 9854 9742 16a7 6bc2 04a4 15c2 7ff1 ea41
00000190: 317e b33f eb9e a6c1 276d 71c1 8380 c93f
000001a0: 9864 9642 baf4 98c1 9b65 59c2 03aa 3841
000001b0: 7055 d441 32f2 20c0 4ed6 e640 2c0f 38c1
000001c0: cbe3 adbf 456f 2e42 c1d1 2fc2 0824 5542
000001d0: 0b75 fd42 79de 72c2 cc9c 07c2 9b3d 8dc2
000001e0: 26a4 af3f 6093 97c1 d009 81c2 b00b 2941
000001f0: 3a24 2d42 eb61 9542 0e84 1142 ee86 ee41
00000200: 470d 67c2 04c2 1a42 1c9b 42c2 f035 bec1
00000210: 61a0 bdc1 23ff 3742 fe10 4142 abae 92c1
00000220: 88cc b1c1 afb9 ddc2 d429 0542 0b27 fa42
00000230: f5bb dd3d 4fb9 e041 30cf 65c2 6d9d 5242
00000240: da4f 64c2 5c89 0f42 a2ad f841 7501 a740
00000250: 9a8e 5b42 c9c1 0ac2 c7ba 06c2 deea dfc2
00000260: c676 b1c0 0556 86c1 66fe c5c1 c0c4 ab41
00000270: e638 b740 03fb d241 5ba6 33c2 4c09 65c1
00000280: 3d08 b8c0 2cfe c2c2 c6e0 18c2 1521 85c2
00000290: 7309 2042 e9c0 b0c2 207b 0d42 9f94 1f42
000002a0: 99d3 1ec2 3093 9541 4f69 eac1 d6a2 d541
000002b0: beea 5040 85a7 8d42 3c61 b5c1 b79c ed41
000002c0: 1307 41c2 1a1e 9b41 dcdd a442 1b7f 9840
000002d0: 735b c0c1 0694 0842 9fdb 85c1 5d82 3ac2
000002e0: 5934 62c2 9303 5fc2 4850 afc2 b5c5 e0c2
000002f0: d9a1 39c2 a7ce aac2 500a 3bc2 6b5c ff41
00000300: a0c3 5dc2 58f1 bbc1 e8d6 ccc0 ac8b 3742
00000310: 7db2 8b42 1c83 ebc1 e6c7 a0c0 5271 20c1
00000320: ba85 03c2 c8ed 2442 268a 1b41 af47 20c2
00000330: 34d8 8142 80b0 7742 e2c0 35c2 fb2a afc1
00000340: be5b 6740 1d6f 57c2 f6a7 8142 018a 5c3f
00000350: d96c b0c2 fd75 0542 9443 cfc2 0579 2b42
00000360: b7ab 4cc1 2e28 cd40 fba6 1641 dd46 f53f
00000370: 0b8b 1b41 1ea6 10c1 f06e 7341 3dfd d342
00000380: 281c 2941 7dce 15c2 ae08 7842 364c a9c1
00000390: dbfb 88c1 ab05 9a42 2dc3 7542 3e42 b4be
000003a0: 65be 8641 59c5 6b42 ad4d 0342 8d7f 70c2
000003b0: 91e9 c2c1 60cf 1cc2 02e0 28c2 9ce2 bdc2
000003c0: c4d9 c342 fe9f d840 fe9d c242 49be 79c2
000003d0: dfbc ccc0 c006 0d42 b0b4 d141 7029 72c1
000003e0: aff3 9b41 983f 26c2 7018 77c2 f10d 61c2
000003f0: ddfb cd41 2f50 ee41 f1ca a5c1 5cec 08c2
-81.54355 -53.557045 -0.7437235 21.148355 23.604221 -8.190494 49.907856 14.4290905
-2.1962938 -77.76661 -26.119839 -7.68493 81.28858 29.60088 15.452768 68.12606
-14.95403 115.23065 81.13527 52.567852 41.190434 55.97049 -14.702278 -0.058947347
-1.4305398 81.816055 129.77573 1.2833759 91.25882 -86.04916 54.13295 0.75571907
85.63082 -14.203113 75.56146 104.75719 11.787404 -9.115477 -34.95428 70.37336
-29.172548 49.98954 32.385017 -6.861113 36.022736 -34.28598 62.943325 -58.45967
7.513548 -12.055501 30.912777 27.057587 -10.374145 107.07933 22.514702 -7.910529
-13.744112 -20.39925 -6.526511 -132.48569 48.94323 16.063988 31.744986 -48.50574
-5.704187 -43.846134 -20.440718 -51.392906 -96.53515 72.86681 -32.78823 -6.471565
-6.2185698 38.56452 -54.842064 -21.58975 -13.862654 126.07431 -3.3169622 14.562043
-27.107544 -31.45393 26.64515 -16.678255 5.0975204 -49.98959 33.880997 -11.743495
41.36409 -97.708244 54.692814 -27.54791 18.058485 1.359123 4.2951403 53.768738
75.66522 -58.91317 -37.41017 29.367918 1.4022886 -20.827597 -15.0891485 1.5742344
75.19647 -19.119495 -54.349224 11.541507 26.541718 -2.5147824 7.2136602 -11.503704
-1.3585142 43.60866 -43.954838 53.285187 126.7286 -60.71726 -33.903122 -70.62032
1.3721969 -18.94696 -64.519165 10.565353 43.285378 74.691246 36.37896 29.815884
-57.762966 38.68947 -48.651474 -23.776337 -23.70331 45.999157 48.266594 -18.335287
-22.224869 -110.86266 33.290848 125.076256 0.108268656 28.090483 -57.45233 52.653736
-57.07798 35.88414 31.084782 5.218928 54.88926 -34.689243 -33.6824 -111.958725
-5.5457487 -16.792002 -24.749218 21.47107 5.7256956 26.372564 -44.912457 -14.31477
-5.7510056 -97.49643 -38.219505 -66.56461 40.009228 -88.37678 35.37024 39.895138
-39.70664 18.696869 -29.30142 26.70451 3.2643275 70.82719 -22.672478 29.70152
-48.25691 19.389698 82.43332 4.765516 -24.044653 34.144554 -16.732237 -46.627308
-56.55112 -55.75349 -87.6568 -112.38615 -46.408054 -85.40362 -46.76007 31.920126
-55.44104 -23.492844 -6.4012337 45.8864 69.84861 -29.439018 -5.0244017 -10.027666
-32.880592 41.23221 9.721228 -40.070004 64.92227 61.922363 -45.438362 -21.895987
3.6149745 -53.85851 64.82805 0.8614808 -88.21259 33.365223 -103.63199 42.868183
-12.791923 6.4111547 9.415767 1.9162251 9.721446 -9.040556 15.214584 105.994606
10.569374 -37.45165 62.008476 -21.162212 -17.122976 77.01107 61.4406 -0.3520679
16.842966 58.942722 32.825855 -60.12456 -24.364046 -39.202515 -42.218758 -94.9426
97.92532 6.7695303 97.30858 -62.435825 -6.3980556 35.25659 26.213226 -15.135117
19.493986 -41.562103 -61.773865 -56.263615 25.74798 29.789152 -20.724092 -34.23082

layers.0.bias f4 [32]
00000000: 1cab 8342 efd8 d3c1 dd50 6ac2 8518 1ac2
00000010: c30b cf41 7b27 2941 9c85 c4c2 9414 87c0
00000020: 7524 a8c1 3312 99c2 27a4 ba41 60b0 8342
00000030: 8ba8 34c2 b164 a041 fddc 6742 f13a 9642
00000040: 53b7 3041 48c5 d342 eca5 2ec2 4e99 8542
00000050: 7ef5 80c2 8b58 8442 093b acc1 fac6 3141
00000060: f644 4f42 4c22 a541 a7f4 90c1 728f f541
00000070: 90ca e7c1 8fd7 19c1 5a7e a541 2ea7 8340
65.8342 -26.480925 -58.578968 -38.523945 25.880743 10.572139 -98.260956 -4.221262
-21.017801 -76.535545 23.330153 65.84448 -45.164593 20.049166 57.96581 75.11512
11.044757 105.885315 -43.662033 66.79942 -64.47948 66.172935 -21.528826 11.111078
51.817345 20.641747 -18.11946 30.695042 -28.973907 -9.615127 20.686695 4.1141577

layers.2.weight f4 [10, 32]
00000000: 8b4d cbc2 70c7 65c2 e2f4 aa41 24b0 83c2
00000010: 9b3a 70c2 7732 b042 2db5 52c1 b1a6 8dc1
00000020: 046c a8c2 c547 5c41 b733 12c2 8cd7 4642
00000030: bf05 2542 6465 8bc0 5f2a c742 85ad c141
00000040: 65c7 6441 0d3b b0c2 c2d9 9bc1 eb2b 2a42
00000050: c1a3 7bc2 c08e 5dc0 5054 8542 348f 0b42
00000060: 47b5 dfc1 54e6 d6c0 b8e7 04c2 1700 4dc2
00000070: 7078 2cc0 45a0 2a42 62b6 f1bf 1614 5642
00000080: 0f42 98c2 3068 4342 593e 21c1 7615 1f42
00000090: 1e4a 5442 417a 1442 8947 9e41 4d06 a141
000000a0: f018 2b41 6ac5 92bf 7122 9dc1 20d1 c0c1
000000b0: 60d0 2242 23fb d8c1 fd92 2ec1 1194 0342
000000c0: 42e6 aa42 596d 44c2 8ace 5ac2 d237 d6c2
000000d0: d040 dbc2 1ebc c8c0 a676 a441 f36f 6240
000000e0: fd26 1a42 e59a 93c2 8944 9442 3af4 b942
000000f0: d4e7 3a42 ff29 27c1 d34c 96c2 7383 44c2
00000100: 9bae eec1 8cf3 cd40 5bac e341 61be bfc2
00000110: 924f 7a42 df62 13c2 fc35 eb42 e3fb e440
00000120: 729d 2942 54a0 19c0 0e34 47c2 3d76 9fc1
00000130: 561f 78c2 9773 13c3 c312 22c3 60e9 2fc1
00000140: 3bbb 8f41 e02d 82c1 2ca0 b0c1 eccb 8941
00000150: 6e8d 2fc1 51a4 19c2 9d09 2641 73d4 7dc1
00000160: 9b32 0f41 2605 52c2 4482 8c41 ffcc bac1
00000170: d8ab 82c2 bdf7 2242 1458 0fc2 5417 1242
00000180: e4d2 2042 e3b0 ffc1 9937 9fc2 ed9c 7142
00000190: b59d 80c2 6d77 b9c1 78f1 8ac1 d530 6e41
000001a0: 45e6 f042 1d98 d4c1 09a0 1c3e 01e5 f840
000001b0: 76d3 ab41 8114 8a42 f88f 25c1 eb33 19c2
000001c0: f88a 25c2 a5fd 0c41 4f3f fe41 d691 b240
000001d0: c430 b9c1 9db4 89c1 6865 ad41 be78 5fc2
000001e0: a8cc a3c2 7e3b 8d3f bc95 a042 3389 df41
000001f0: ade4 2940 8d61 b2c1 4694 f242 80d9 b3c1
00000200: d99d 15c0 3cc0 fdc1 9066 aac2 bd83 5ac1
00000210: 0f1c c742 03a7 e8c1 23ce 8840 415f acc2
00000220: dc8c 7dc0 6d5e d5c1 1f76 2a42 653d e53e
00000230: 9ad9 7642 6ce4 f2c1 48ab 23c2 9bb9 8e41
00000240: bc33 86bf b630 8dc1 f540 b442 177e d0c1
00000250: adb4 5341 8202 95c2 7064 dd41 d657 9d40
00000260: 4889 46c2 d375 52c2 491b 1040 f409 d4c1
00000270: 4370 8b42 1e1f ba41 72b8 adc1 5aab 4541
00000280: 85f4 c540 d8af b1c2 01c0 8fc1 2ae0 1942
00000290: 8b0f b541 a2c9 f8c1 9a57 b9bf 9b3e 76c2
000002a0: 96b4 d542 2dce 1742 59c8 41c1 bdd2 74c2
000002b0: 8d44 9442 1146 3f42 21b7 f542 baf5 b0c1
000002c0: c589 f241 5cb4 5b42 69e9 cd3f ad54 9c42
000002d0: f6be 6c42 39ae 7c40 5809 39c2 31ba 6141
000002e0: fb3f 74c2 9610 5a42 0254 8942 cd77 8dc1
000002f0: 89e2 4ac2 8826 4742 15ef a642 bfa3 dcc2
00000300: 66c5 9d41 6e88 0a42 8b9c 88c2 a912 1dc0
00000310: 0d39 5ec2 a862 38c2 db4d f9c0 079b 8941
00000320: 1f58 28c2 86bf c2c1 139b a042 d904 423e
00000330: aae8 abc2 5364 ee41 0cb4 c042 f1c2 fa41
00000340: 8dd3 d5c1 cccf d9c1 77fd 2340 eec6 bfc2
00000350: 0a27 3fc2 dbf6 3bc2 9180 2fc2 306e 5441
00000360: 265a 97c2 9e4d 41c2 8395 8642 7309 2242
00000370: 8385 a942 2a0c 04c3 cd9f 7d41 587a 8442
00000380: a79b ed41 124d 1142 71d8 da3f 7b19 d941
00000390: 52fc 4242 7497 fc41 96e8 71c2 f5bd 81c0
000003a0: 79b0 6b41 04b6 07c2 60ae eb41 f96d d8c0
000003b0: 4872 25c2 feed 9cc2 2898 1ec1 0700 0fc2
000003c0: 8619 7040 675e 4cc2 3c8c 08c3 ffd8 7442
000003d0: d55b 2741 3e5d d642 d516 da41 3ee0 b642
000003e0: 444f 7b41 1143 00bf 94f0 e541 d60f 59c2
000003f0: 3b79 19c2 f0e3 30c2 a71c 0243 2b09 e7c2
-101.65145 -57.444763 21.369572 -65.844025 -60.05723 88.098564 -13.169232 -17.706392
-84.21097 13.767522 -36.550503 49.710495 41.25561 -4.356127 99.582756 24.209726
14.29868 -88.11533 -19.481327 42.54289 -62.909916 -3.4618378 66.66467 34.889847
-27.963514 -6.715616 -33.226288 -51.250088 -2.694851 42.656513 -1.8883784 53.519615
-76.12902 48.851746 -10.077722 39.770958 53.07238 37.11939 19.78493 20.128077
10.693588 -1.1466496 -19.641817 -24.102112 40.70349 -27.122625 -10.910886 32.894596
85.44972 -49.106785 -54.7017 -107.109024 -109.62659 -6.2729635 20.557934 3.5380828
38.538074 -73.80253 74.13386 92.977005 46.726395 -10.447753 -75.15005 -49.12837
-29.835257 6.43598 28.459158 -95.87183 62.577705 -36.846554 117.60544 7.155748
42.403755 -2.4004107 -49.800835 -19.932734 -62.0306 -147.45152 -162.07329 -10.994476
17.966421 -16.2724 -22.078209 17.224571 -10.972029 -38.410465 10.377347 -15.8643675
8.949855 -52.505028 17.563606 -23.350096 -65.33563 40.741932 -35.836014 36.52278
40.205948 -31.96137 -79.60859 60.403248 -64.30802 -23.183313 -17.367905 14.886922
120.449745 -26.574274 0.15295424 7.7779546 21.478252 69.04005 -10.347649 -38.3007
-41.38571 8.811925 31.780912 5.5803022 -23.148811 -17.21319 21.674515 -55.867912
-81.89972 1.103378 80.29245 27.941992 2.6545823 -22.297632 121.2896 -22.481201
-2.3377593 -31.718864 -85.20032 -13.657163 99.5548 -29.081549 4.275163 -86.18604
-3.9617224 -26.671106 42.615353 0.44773403 61.7125 -30.361534 -40.917267 17.840628
-1.0484538 -17.648785 90.12687 -26.061567 13.23161 -74.5049 27.674042 4.916972
-49.634064 -52.615063 2.2516654 -26.50486 69.71926 23.265194 -21.715061 12.354334
6.1860986 -88.843445 -17.968752 38.46891 22.63259 -31.098454 -1.4479859 -61.56114
106.85271 37.951344 -12.111413 -61.2058 74.13389 47.818424 122.85767 -22.119984
30.31727 54.926132 1.6086856 78.16538 59.186485 3.9481337 -46.259125 14.107957
-61.06248 54.516197 68.66408 -17.683496 -50.721226 49.78763 83.46696 -110.31982
19.721386 34.633232 -68.30575 -2.454264 -55.555714 -46.096344 -7.790754 17.200697
-42.086056 -24.343517 80.30288 0.18947162 -85.95442 29.798986 96.351654 31.345186
-26.728296 -27.226463 2.5623453 -95.888535 -47.788124 -46.99107 -43.875553 13.276901
-75.67607 -48.325798 67.292015 40.509228 84.760765 -132.04752 15.851514 66.23895
29.701002 36.325264 1.7097303 27.137442 48.746407 31.573952 -60.477135 -4.054438
14.730584 -33.92775 29.460144 -6.7634244 -41.361603 -78.46483 -9.9121475 -35.750027
3.7515578 -51.09219 -136.54779 61.21191 10.45992 107.18211 27.261148 91.43797
15.706852 -0.50102335 28.74247 -54.265465 -38.36839 -44.222595 130.11192 -115.51791

layers.2.bias f4 [10]
00000000: f99b bb42 3ca7 25c2 931f 05c1 e713 0ac2
00000010: b7a4 4c42 f1ac 903f fe9e 16c1 d960 b241
00000020: 52fe 4ac2 d592 6b42
93.804634 -41.413315 -8.320209 -34.519436 51.160854 1.1302778 -9.413816 22.297289
-50.74836 58.89339
