model_r_0.1_15_512.pth (torch, 105675 bytes, 4 tensors)

weight f4 [32, 784]
0	0x3f29b405	0.66290313
1	0x3f2f1476	0.68390596
2	0x3f37e356	0.7183126
3	0x3f2dcfe4	0.6789534
4	0x3f2b4a27	0.6691002
5	0x3f36b53b	0.71370286
6	0x3f2c3631	0.6727019
7	0x3f2a5603	0.66537493
8	0x3f2eae63	0.68234843
9	0x3f337f4b	0.7011611
10	0x3f3732c0	0.71561813
11	0x3f37187d	0.7152174
12	0x3f2ae3f6	0.6675409
13	0x3f311a55	0.69180804
14	0x3f28d3ab	0.6594798
15	0x3f34eec6	0.7067684
16	0x3f2ffed7	0.6874823
17	0x3f361cca	0.7113768
18	0x3f33b7a8	0.7020211
19	0x3f2c3674	0.6727059
20	0x3f38aaf3	0.7213585
21	0x3f2e2b5b	0.68034905
22	0x3f38357f	0.7195663
23	0x3f37718c	0.71657634
24	0x3f2cd507	0.67512554
25	0x3f32e450	0.6987963
26	0x3f333a48	0.70010805
27	0x3f34e83b	0.70666856
28	0x3f2918d3	0.66053504
29	0x3f3027d0	0.6881075
30	0x3f2966e6	0.66172636
31	0x3f381f67	0.71922916
32	0x3f3634a6	0.71174085
33	0x3f3230a4	0.6960547
34	0x3f2f2598	0.6841674
35	0x3f30bd38	0.69038725
36	0x3f3618bb	0.71131486
37	0x3f354d92	0.7082149
38	0x3f2b9ca8	0.67035913
39	0x3f27eb2e	0.6559323
40	0x3f279ad4	0.65470624
41	0x3f215f36	0.63035905
42	0x3f29e042	0.66357815
43	0x3f3529be	0.7076682
44	0x3f2bab82	0.67058575
45	0x3f2ee25d	0.6831415
46	0x3f33bb87	0.7020802
47	0x3f2e5958	0.6810508
48	0x3f39acdf	0.72529405
49	0x3f353e2c	0.7079799
50	0x3f298feb	0.66235226
51	0x3f31b290	0.6941309
52	0x3f2c3699	0.6727081
53	0x3f352866	0.7076477
54	0x3f2e3487	0.680489
55	0x3f2bc39c	0.6709535
56	0x3f350ac7	0.7071957
57	0x3f39363f	0.723484
58	0x3f34d810	0.70642185
59	0x3f378cdd	0.71699315
60	0x3f32a31b	0.6978013
61	0x3f2d1736	0.6761354
62	0x3f377f97	0.7167906
63	0x3f2ee2b6	0.68314683
64	0x3f24c217	0.6435866
65	0x3f244ae4	0.64176774
66	0x3f21da81	0.63224036
67	0x3f2e723a	0.68143046
68	0x3f210ea5	0.6291297
69	0x3f14cd62	0.5812589
70	0x3ef7e166	0.48414153
71	0x3ec59095	0.3858687
72	0x3ed1e326	0.40993613
73	0x3ed3672f	0.4128966
74	0x3eeeb039	0.46618822
75	0x3f11c9ec	0.56948733
76	0x3f294aa4	0.6612952
77	0x3f2fecde	0.68720806
78	0x3f2cbceb	0.67475766
79	0x3f27fbb1	0.65618426
80	0x3f359ef4	0.7094567
81	0x3f2e3181	0.68044287
82	0x3f39486e	0.72376144
83	0x3f35d906	0.71034276
84	0x3f2e996a	0.6820284
85	0x3f28a08c	0.65869975
86	0x3f2b1ddd	0.6684244
87	0x3f2aa267	0.66654056
88	0x3f35b004	0.70971704
89	0x3f2a7b53	0.6659443
90	0x3f2d1d40	0.67622757
91	0x3f26996b	0.6507785
92	0x3f0a03b2	0.5391189
93	0x3eee8530	0.4658599
94	0x3eba4897	0.36383507
95	0x3e851979	0.25995997
96	0x3e250128	0.16113722
97	0x3dabb181	0.083834656
98	0x3d267867	0.04064217
99	0xbc7e86a4	-0.0155350305
100	0xbde884bb	-0.11353441
101	0xbdea5c0f	-0.1144334
102	0x3d013cae	0.03155201
103	0x3e9a77d6	0.30169553
104	0x3eee9832	0.4660049
105	0x3f2d77db	0.6776101
106	0x3f2cb2a8	0.6746011
107	0x3f38f559	0.7224937
108	0x3f32de88	0.69870806
109	0x3f357863	0.7088682
110	0x3f2a1563	0.66438884
111	0x3f28a171	0.6587134
112	0x3f311580	0.6917343
113	0x3f2fc1a4	0.6865485
114	0x3f3232f0	0.69608974
115	0x3f33c636	0.7022432
116	0x3f24d419	0.64386135
117	0x3f194b54	0.59880567
118	0x3f0efaa0	0.55851173
119	0x3ec89435	0.39175573
120	0x3eaf6d10	0.34262896
121	0x3e396d33	0.18108062
122	0x3d8db29e	0.06918834
123	0xbbc8ba92	-0.0061257565
124	0xbd6b61c5	-0.057466287
125	0xbe175e3f	-0.14782046
126	0xbe71408d	-0.2355978
127	0xbe8bfed1	-0.27342847
128	0xbe74f95a	-0.23923245
129	0xbea11886	-0.31464022
130	0xbdf4c2e8	-0.11951238
131	0x3e1a8cc4	0.1509276
132	0x3ebb7029	0.3660901
133	0x3f4401fe	0.7656554
134	0x3f4df4f0	0.8045187
135	0x3f38964f	0.7210435
136	0x3f38924d	0.7209824
137	0x3f37a959	0.7174278
138	0x3f35c854	0.710088
139	0x3f2e8f25	0.6818717
140	0x3f363d51	0.7118731
141	0x3f2e9b15	0.68205386
142	0x3f3370d9	0.70094067
143	0x3f2ef071	0.68335634
144	0x3f1f0b7f	0.62126917
145	0x3ee4f373	0.44716987
146	0x3eaf2a06	0.3421175
147	0x3e9a8f62	0.30187517
148	0x3e663343	0.22480492
149	0x3e2cc444	0.16871744
150	0x3e92e06d	0.28686848
151	0x3e4a3136	0.19745335
152	0x3deaa509	0.11457259
153	0xbe721db0	-0.23644137
154	0xbe9f98d9	-0.311713
155	0xbed43cd9	-0.41452673
156	0xbee2757d	-0.4423026
157	0xbf011d82	-0.5043565
158	0xbf154526	-0.5830864
159	0x3f806c8e	1.0033128
160	0x3f707ee7	0.9394364
161	0x3f7b6fa9	0.98217255
162	0x3f7ac8e5	0.9796279
163	0x3f59bf81	0.85057837
164	0x3f4c8165	0.7988494
165	0x3f45b8c4	0.77235055
166	0x3f38bd64	0.7216399
167	0x3f2d2df4	0.67648244
168	0x3f2c7770	0.6736975
169	0x3f39440a	0.72369444
170	0x3f30e2a5	0.6909583
171	0x3f371ebd	0.7153128
172	0x3f0a4e53	0.54025763
173	0x3ec6096c	0.38679063
174	0x3ed31d72	0.41233402
175	0x3e8fe2cc	0.2810272
176	0x3eecd2b7	0.46254513
177	0x3eea63f6	0.4577939
178	0x3e864a41	0.26228526
179	0x3e460a58	0.19339883
180	0xbe9475e4	-0.28996193
181	0xbf09f8f0	-0.53895473
182	0xbf44274e	-0.76622474
183	0xbf5eeda4	-0.8708136
184	0xbf5d67d8	-0.8648658
185	0xbf574a0f	-0.8409738
186	0xbedfe572	-0.4372974
187	0xbd998ff1	-0.07498158
188	0x3e939c95	0.288304
189	0x3f511e0c	0.8168647
190	0x3f843bab	1.0330709
191	0x3f8ee9a6	1.1165054
192	0x3f8fac86	1.1224525
193	0x3f829fdd	1.0205036
194	0x3f4294a8	0.7600808
195	0x3f2fe348	0.6870618
196	0x3f36cb70	0.7140417
197	0x3f318059	0.6933647
198	0x3f33fe4e	0.70309913
199	0x3f323325	0.6960929
200	0x3f267217	0.6501784
201	0x3edb3ded	0.42820683
202	0x3ecbdb10	0.3981557
203	0x3f12210d	0.5708168
204	0x3f1db927	0.61610645
205	0x3e6aaa4b	0.22916524
206	0xbecfe640	-0.40605354
207	0xbf60730e	-0.8767556
208	0xbf63566d	-0.8880375
209	0xbf78a4f6	-0.9712671
210	0xbf72ec95	-0.94892246
211	0xbf6cb739	-0.92467076
212	0xbf600726	-0.8751091
213	0xbf235a9f	-0.6381015
214	0xbecc83aa	-0.39944202
215	0xbeaeffbc	-0.34179485
216	0xbe5cbba2	-0.21555951
217	0x3ddfad73	0.10921755
218	0x3f4dcdb8	0.80392027
219	0x3f83a685	1.0285193
220	0x3f90b5bb	1.130546
221	0x3f874cf2	1.0570357
222	0x3f4038ce	0.7508668
223	0x3f33a54d	0.70174104
224	0x3f29b184	0.6628649
225	0x3f32fec1	0.69919974
226	0x3f3608e7	0.71107334
227	0x3f35d10b	0.710221
228	0x3f2f4d4d	0.68477327
229	0x3f1ca67f	0.6119155
230	0x3f008e7b	0.5021741
231	0x3f4f6758	0.81017065
232	0xbf0dd53a	-0.5540348
233	0xbf2bba86	-0.6708149
234	0xbf1e671e	-0.61876094
235	0xbf4e844c	-0.8067062
236	0xbf5d2726	-0.8638786
237	0xbf346ca1	-0.70478255
238	0xbf6f79ae	-0.93545043
239	0xbf5f0157	-0.8711142
240	0xbf2ec1f2	-0.6826469
241	0xbf30b0da	-0.69019854
242	0xbedcfa43	-0.43159685
243	0xbeba5da7	-0.36399576
244	0xbeb689a9	-0.356519
245	0xbe704805	-0.23464973
246	0x3ead20bd	0.3381404
247	0x3f58c480	0.84674835
248	0x3f8eb281	1.1148225
249	0x3f8594d1	1.043604
250	0x3f3425e3	0.7037031
251	0x3f2fe18b	0.68703526
252	0x3f2ca9d4	0.6744664
253	0x3f37c76e	0.7178868
254	0x3f2c3f0c	0.672837
255	0x3f3430b7	0.7038683

bias f4 [32]
0	0xbf2af323	-0.6677725
1	0xbf126044	-0.5717814
2	0xbea5e5f1	-0.32401994
3	0xbebc8ccc	-0.3682617
4	0xbef40e52	-0.47667176
5	0xbf2d6088	-0.6772542
6	0xbf23c113	-0.6396648
7	0xbf10f43e	-0.56622684
8	0xbf14910f	-0.5803384
9	0xbee32355	-0.44362894
10	0xbf0c3f37	-0.5478396
11	0xbf596d91	-0.8493281
12	0xbeaa4dea	-0.3326257
13	0xbf4d5479	-0.8020702
14	0xbf4135e5	-0.7547286
15	0xbf8888e9	-1.0666782
16	0xbf1788fd	-0.591934
17	0xbf142576	-0.5786966
18	0xbf1e9d81	-0.6195908
19	0xbf276c45	-0.6539958
20	0xbf01c8e5	-0.50697166
21	0xbf4f3fc3	-0.8095667
22	0xbf21359b	-0.6297242
23	0xbeff2515	-0.4983298
24	0xbe85d38f	-0.2613797
25	0xbf4ea410	-0.8071909
26	0xbf1552d1	-0.5832949
27	0xbe9ba9af	-0.30402896
28	0xbf44ccbe	-0.7687491
29	0xbf11bada	-0.5692574
30	0xbf0469e3	-0.5172407
31	0xbeed8600	-0.46391296

weight f4 [10, 32]
0	0xbf008b22	-0.502123
1	0x3f1fa7b3	0.62365264
2	0xbf3c6fed	-0.73608285
3	0x3edf9d92	0.43674904
4	0xbd7a08b8	-0.06104347
5	0xbeecbbcc	-0.46237028
6	0x3f031097	0.5119719
7	0x3f16acca	0.58857405
8	0xbf0e9f1d	-0.5571154
9	0xbf0365fd	-0.51327497
10	0xbf12fafc	-0.5741422
11	0xbe066fef	-0.13128637
12	0xbefbaa2b	-0.49153265
13	0x3f3d8a3e	0.74039066
14	0xbf2fb470	-0.686347
15	0x3f4386c9	0.7637754
16	0xbf394a28	-0.7237878
17	0x3f07fa9f	0.5311679
18	0x3ee9597d	0.45576087
19	0xbe376861	-0.17910911
20	0x3edb63b0	0.42849493
21	0xbf6d51c4	-0.9270289
22	0x3ee5f7d2	0.44915634
23	0xbedfef18	-0.43737102
24	0xbeca9559	-0.39567068
25	0xbd78e7f6	-0.06076809
26	0x3f02a01d	0.51025563
27	0x3df13be8	0.11779004
28	0xbf404dd5	-0.7511876
29	0x3f0b204f	0.54346174
30	0x3e4d377e	0.200407
31	0x3ecfafc5	0.4056379
32	0xbe73c7e4	-0.23806721
33	0xbf03b821	-0.51452833
34	0xbee244a2	-0.44192988
35	0x3ec58d3a	0.3858431
36	0x3d5b9ca6	0.05361619
37	0xbdc0c510	-0.09412587
38	0xbf03cf2c	-0.51487994
39	0x3f1369f3	0.5758354
40	0xbeeeacc3	-0.46616182
41	0xbee528aa	-0.44757587
42	0x3d3ac950	0.045602143
43	0xbf1f68e3	-0.6226942
44	0xbde0defc	-0.10980031
45	0x3f0d17e0	0.55114555
46	0x3f10549c	0.56379104
47	0xbefb2875	-0.49054304
48	0xbeecf580	-0.46281052
49	0xbf105d17	-0.56392044
50	0x3f244ab3	0.6417648
51	0xbf2b2caf	-0.66865057
52	0x3e75ed42	0.24016288
53	0xbf418fe4	-0.75610185
54	0xbf36c48a	-0.71393645
55	0xbf06a61a	-0.525972
56	0x3c24216d	0.010017735
57	0x3ddba9ce	0.10725747
58	0xbf29257c	-0.6607282
59	0xbf38780e	-0.7205819
60	0x3eac6422	0.33670145
61	0xbeec2c8f	-0.46127746
62	0x3e8ec151	0.27881864
63	0xbe660f24	-0.22466713
64	0x3eca32cd	0.39491883
65	0x3eeaa7f8	0.45831275
66	0x3eeeb397	0.4662139
67	0x3f3080b9	0.68946415
68	0x3efd5fa0	0.4948702
69	0x3f442fa1	0.76635176
70	0xbe28f057	-0.16497932
71	0xbf002047	-0.5004925
72	0x3f21b4ca	0.6316649
73	0x3ef30437	0.47464153
74	0x3f3b95ac	0.73275256
75	0xbf6d45a4	-0.9268439
76	0x3ea2cb14	0.3179556
77	0x3ed0a3a8	0.4074986
78	0xbf25079d	-0.6446474
79	0x3eef8f82	0.46789175
80	0xbf2d102a	-0.6760279
81	0xbf1238e4	-0.5711806
82	0x3f1a0cc0	0.60175705
83	0x3f18ded6	0.5971502
84	0x3eaed25a	0.3414486
85	0x3b9c73ba	0.004774538
86	0xbf115287	-0.5676655
87	0x3eb0696f	0.3445544
88	0x3ed45592	0.41471535
89	0x3f0ecdc2	0.5578271
90	0xbf080e15	-0.5314649
91	0x3e2bbec5	0.16771992
92	0xbf3f8199	-0.74807125
93	0x3efeaa32	0.49739224
94	0x3efb987c	0.49139774
95	0x3ef8ad47	0.485697
96	0xbe194e25	-0.14971216
97	0x3eeaee65	0.45885006
98	0x3eb5b3b3	0.35488662
99	0xbd65888f	-0.056038436
100	0xbeb10e62	-0.34581286
101	0xbe8b5214	-0.27211058
102	0xbf14b0b5	-0.58082134
103	0xbee03b7b	-0.4379538
104	0x3f00cedb	0.50315636
105	0x3e6f7432	0.23384169
106	0x3d5c110a	0.053727187
107	0x3e6e2a75	0.23258384
108	0xbf365010	-0.71215916
109	0xbf51b004	-0.81909204
110	0xbf000156	-0.5000204
111	0xbd82bd04	-0.06383708
112	0x3f0a10ed	0.53932077
113	0x3f12a5b6	0.57284105
114	0xbf23cf25	-0.6398795
115	0xbeffd37e	-0.49966043
116	0x3e968166	0.29395598
117	0x3e951442	0.29117018
118	0xbf3f04ff	-0.74617
119	0x3f39db8a	0.72600615
120	0xbe8a2c68	-0.26987004
121	0x3e9bdb7e	0.30440897
122	0xbf06fe71	-0.52731997
123	0xbedde171	-0.4333606
124	0xbef51c73	-0.47873268
125	0xbf137bef	-0.5761098
126	0x3e1f95cf	0.15584491
127	0xbece3cf2	-0.40280873
128	0x3f0f5d4e	0.56001747
129	0xbf1f5bf7	-0.622497
130	0x3ef779cf	0.4833512
131	0x3e87b8a8	0.2650807
132	0x3f19f282	0.6013566
133	0x3edafe4f	0.42772147
134	0x3f21d14d	0.6320999
135	0xbf2aaac1	-0.666668
136	0x3f24c157	0.64357513
137	0x3e89628c	0.26832998
138	0x3eb779bb	0.3583506
139	0xbf3eba85	-0.74503356
140	0x3f012fc3	0.50463504
141	0xbf2a1f63	-0.6645414
142	0xbf0c9752	-0.54918396
143	0x3e1385ef	0.1440656
144	0x3f13f46b	0.5779483
145	0xbeefd123	-0.46839246
146	0xbef86f73	-0.4852253
147	0x3f0e9b6e	0.55705917
148	0x3f11bc32	0.5692779
149	0x3f40fd24	0.7538626
150	0xbe5db3af	-0.21650575
151	0x3f054b1b	0.52067727
152	0x3eb482e8	0.35256124
153	0xbf60f65d	-0.8787592
154	0x3f46d760	0.77672386
155	0x3e056997	0.1302856
156	0x3f3feb4b	0.74968404
157	0x3eef5a70	0.46748686
158	0x3efa6bf6	0.48910493
159	0x3f0247a6	0.50890577
160	0x3e9b09a4	0.30280793
161	0xbf3c140f	-0.73468107
162	0x3dfcb773	0.12339678
163	0xbe08677d	-0.13320728
164	0xbe1309d2	-0.14359215
165	0x3f07a0c6	0.52979696
166	0xbf35bb29	-0.7098871
167	0x3efa8740	0.48931313
168	0xbf0c593a	-0.5482365
169	0x3f08e0de	0.5346812
170	0x3f121b45	0.5707286
171	0xbf35987b	-0.7093579
172	0x3f02cf24	0.5109732
173	0xbf1a3547	-0.60237545
174	0x3e653403	0.22383122
175	0x3ed1342b	0.40860114
176	0x3f35ea80	0.71060944
177	0xbee3facb	-0.44527277
178	0xbf2b95ad	-0.6702526
179	0x3ea06eeb	0.31334624
180	0x3e83916b	0.25696883
181	0xbebe543d	-0.37173644
182	0xbf1c24f4	-0.60993886
183	0x3eaa7717	0.33293983
184	0x3e98f363	0.2987319
185	0xbda5e4a1	-0.08100248
186	0xbf14f4a3	-0.58185786
187	0x3eb30063	0.34961233
188	0xbeffdaaa	-0.49971515
189	0xbf0a2e5b	-0.5397698
190	0xbdf2f67d	-0.1186342
191	0x3eadf2a6	0.3397419
192	0xbeee1eb8	-0.46507812
193	0x3f2c8aec	0.6739948
194	0x3dffeba7	0.12496119
195	0x3e3677fe	0.17819211
196	0xbd85e98c	-0.06538686
197	0xbe0b893b	-0.13626568
198	0x3f2d43b8	0.67681456
199	0xbf2eac35	-0.6823152
200	0x3ee993ae	0.45620483
201	0xbd955ee4	-0.072934896
202	0x3a46033b	0.0007553582
203	0xbf450b44	-0.76970315
204	0x3dbceece	0.09225236
205	0x3ebb1d8d	0.36545983
206	0x3e03d537	0.12874304
207	0x3f30df8a	0.69091094
208	0x3f2fdd88	0.68697405
209	0xbf035652	-0.5130359
210	0x3f057c2d	0.521426
211	0x3eca43ba	0.39504796
212	0xbe95ddf4	-0.292709
213	0xbef8e757	-0.48613998
214	0x3f09f8fa	0.53895533
215	0x3dced3a9	0.10098965
216	0xbccbb9fc	-0.024868958
217	0xbe20c09c	-0.15698475
218	0x3ef4d105	0.4781572
219	0xbe13d368	-0.14436114
220	0xbf0a2212	-0.5395824
221	0x3f3c15dd	0.7347086
222	0xbe006ac8	-0.12540734
223	0x3f0c6a68	0.54849863
224	0xbed3c3bf	-0.4136028
225	0xbf0783fb	-0.5293576
226	0xbda58ffa	-0.08084102
227	0x3f387bd7	0.72063965
228	0x3e30b21d	0.17255445
229	0xbef5f397	-0.48037407
230	0x3ef1e635	0.47245947
231	0x3f2911f9	0.6604305
232	0xbf1df6ea	-0.61704886
233	0xbe835d6e	-0.2565722
234	0xbf0f00b7	-0.55860466
235	0x3f21c11c	0.63185287
236	0xbf0cf1cd	-0.5505646
237	0xbebb8841	-0.3662739
238	0xbdbe1725	-0.09281758
239	0xbe9d56d8	-0.3073032
240	0xbf2dda7d	-0.6791151
241	0x3ef4a4fa	0.47782117
242	0xbf410043	-0.75391024
243	0xbe844f8b	-0.25841936
244	0x3f2167ef	0.63049215
245	0x3e912019	0.283448
246	0xbf242cce	-0.64130867
247	0xbf03830b	-0.5137183
248	0xbe84c764	-0.25933373
249	0xbf1fa63d	-0.62363034
250	0x3f38689c	0.7203462
251	0xbf1bc804	-0.60852075
252	0x3dd91096	0.10598867
253	0xbf10649e	-0.5640353
254	0x3f33086d	0.6993473
255	0x3e16c98f	0.14725326

bias f4 [10]
0	0xbf55d9b2	-0.835353
1	0x402c8942	2.6958776
2	0x3e3d9c7e	0.18516728
3	0x402ad56e	2.6692767
4	0xbf58f643	-0.84750766
5	0x4012c679	2.2933638
6	0xbf502c3b	-0.8131749
7	0xc0628d40	-3.5398712
8	0x402a6240	2.6622467
9	0x3f136abc	0.5758474
