model_t_0.1_15_512.pth (torch, 105675 bytes, 4 tensors)

weight f4 [32, 784]
00000000: e135 8e3e c2f6 983e 7f94 aa3e 9d6d 963e
00000010: 2462 913e 4b38 a83e 393a 933e de79 8f3e
00000020: 9b2a 983e 69cc a13e 5333 a93e cdfe a83e
00000030: c395 903e 7e02 9d3e 2d75 8c3e 60ab a43e
00000040: 82cb 9a3e 6807 a73e 243d a23e bf3a 933e
00000050: b923 ac3e 8c24 973e d238 ab3e ebb0 a93e
00000060: e477 943e 7596 a03e 6442 a13e 4a9e a43e
00000070: 7cff 8c3e 741d 9b3e a39b 8d3e a00c ab3e
00000080: 92a8 a73e f97e a03e 2017 993e be2b 9c3e
00000090: 8394 a63e b236 a53e 80cf 913e 33a4 8a3e
000000a0: 1733 8d3e b2f9 8c3e bfdb 943e 8a98 a23e
000000b0: b13d a03e 0db4 973e 362b 9e3e 9158 973e
000000c0: 18d0 aa3e 6947 a53e aded 8d3e f532 9e3e
000000d0: 093b 933e a01e a53e e436 973e 0f55 923e
000000e0: 62e3 a43e 523a ad3e f47d a43e 8ce7 a93e
000000f0: d65a a03e 56c3 953e bc98 aa3e 3628 a13e
00000100: 57d3 903e 8834 953e ceea 893e 51bd 9a3e
00000110: 0eee 8d3e 1304 713e 4bc9 2c3e 2473 133e
00000120: 5a17 503e bf58 533e 4f41 793e 36c4 933e
00000130: 317d 923e 9d91 943e ba1b 943e 925f 893e
00000140: 314a a33e 6a8e 953e b05e ad3e e07f a63e
00000150: aa00 983e ee0e 8c3e 8f09 913e a412 903e
00000160: dc2d a63e 5bbc 953e 3141 983e b3da 9b3e
00000170: 47c9 8e3e 0552 853e 0718 733e 4336 3e3e
00000180: 4b93 ac3d 8e0f d6bd 3a98 63be 899f 36be
00000190: 6bfb 0abe 582a 07bd 6ab3 b93c 6ff2 df3d
000001a0: 53b4 2d3e bb8e 673e b466 8b3e 80e9 ac3e
000001b0: b3b7 9f3e c7dd a53e 9ef8 8e3e b910 8c3e
000001c0: d6f8 9c3e 1d51 9a3e b533 9f3e d338 a13e
000001d0: 002c 8f3e 3a00 9e3e 32b9 9d3e 8ee8 733e
000001e0: 5b5d 8a3e 0035 4a3e 0418 4a3e 0786 ecbd
000001f0: d50a 36bf fb61 67bf 3357 75bf 7314 70bf
00000200: 7782 74bf 0c15 7dbf aab2 bdbe 514f 0a3d
00000210: 4784 513e 8f51 a33e f628 9e3e 93a9 9f3e
00000220: 9e23 af3e 0f0b a53e e705 9d3e 1fec 973e
00000230: 7648 a73e ff03 983e 7247 a03e 9f69 943e
00000240: 96d9 ac3e 7517 ac3e d4b8 9e3e 4415 683e
00000250: 621e 653e fcdc ee3e fa25 fcbc b179 edbe
00000260: 66a8 07bf f309 3dbf e6d3 43bf 9d61 50bf
00000270: a1c8 4abf 0826 edbe e439 26be eb61 ef3d
00000280: ebdc 0c3f a00e 173f b7c0 0b3f 66d1 183f
00000290: ab47 a73e 8bc0 9a3e d29f 8f3e 01e2 8e3e
000002a0: b6bc 933e e755 ad3e 0f80 9b3e 4574 9a3e
000002b0: 6dfb a23e c38c 9d3e 3ded 923e 74d4 853e
000002c0: bbe5 ef3e 36cb de3e b17c 17be c395 bbbe
000002d0: ce6e b9be 5689 18bf e531 17bf 7c88 f1be
000002e0: 64b5 dbbe 0a9e a5be abb3 dfbd 5f9f a03c
000002f0: 6dbf 653e fc3a 3b3f 20f0 353f 9301 543f
00000300: 223d 0d3f 9616 983e c9a9 a43e ea3d 913e
00000310: b464 a83e 5dce 9d3e 695e a23e b781 943e
00000320: 3de3 a33e e797 9d3e c5ff a33e 2e79 213f
00000330: e139 753e 8195 593d 2ba4 50be d678 c1be
00000340: a1da 0ebf da69 27bf 70ec 2bbf 3efb 34bf
00000350: cfc9 22bf 8376 a2be b0c6 5bbe b134 eabd
00000360: 5bc2 ae3d 9687 cc3e 51d8 933f e7c6 363f
00000370: 0e5d 0d3f 0c51 053f 1a70 b73e ddfc a23e
00000380: e030 8e3e 50ca a03e cb20 a33e 4985 9b3e
00000390: d6c6 993e d33b d53e 27f5 e13e 70bf 013e
000003a0: 04be 693c 4d96 3dbe 09e1 80be d967 13bf
000003b0: 7cf7 23bf e635 2bbf 1ca9 41bf dff9 48bf
000003c0: 0270 0dbf 2fab c8be 63d6 4bbe 7618 bcbd
000003d0: f645 87bc bf4e e13e a71d 9b3f a3b4 523f
000003e0: 5388 263f 1669 113f 9fde 9b3e 90df 9b3e
000003f0: 7e21 943e dd47 aa3e d4b3 8a3e 0b9e a43e
0.2777548 0.2987576 0.3331642 0.29380503 0.28395188 0.32855448 0.28755358 0.28022665
0.29720005 0.31601265 0.3304697 0.33006898 0.2823926 0.30665964 0.27433148 0.32162
0.3023339 0.32622838 0.31687272 0.28755757 0.33621004 0.2952007 0.33441788 0.3314279
0.2899772 0.3136479 0.31495965 0.32152015 0.2753867 0.30295908 0.27657804 0.3340807
0.32745796 0.31346872 0.29900455 0.30502123 0.3253518 0.32268292 0.28478622 0.270784
0.2757804 0.27534252 0.29073903 0.31757003 0.31297067 0.29629555 0.30892342 0.29559758
0.33361888 0.32281044 0.27720395 0.30898252 0.28755978 0.32249928 0.29534066 0.2858052
0.3220473 0.33833557 0.32127345 0.3318447 0.31319302 0.29250592 0.33319652 0.3147599
0.2828624 0.2914164 0.26936954 0.30222562 0.27720684 0.2353671 0.16873662 0.14399391
0.20321408 0.20639323 0.2434132 0.28860635 0.28611138 0.29017344 0.28927404 0.26830727
0.3189254 0.29210216 0.33861303 0.32519436 0.29688007 0.2735514 0.28327605 0.28139222
0.32456863 0.29245266 0.29737237 0.30440292 0.27887937 0.26039138 0.23739634 0.18575387
0.084265314 -0.104521856 -0.22226039 -0.17834295 -0.13572471 -0.032999367 0.02266856 0.109349124
0.1696332 0.22613041 0.27226794 0.33771896 0.3119484 0.32395765 0.27924055 0.27356508
0.30658597 0.3014001 0.31094137 0.31488666 0.27963257 0.30859548 0.30805355 0.23819181
0.2702435 0.1974678 0.19735724 -0.11549001 -0.7111028 -0.9038388 -0.9583618 -0.93781203
-0.95511574 -0.9886024 -0.37050372 0.03376705 0.20460616 0.31898162 0.30890626 0.31184062
0.3420686 0.32235 0.30668566 0.29672334 0.3267247 0.2969055 0.31304508 0.28986832
0.33759755 0.33611646 0.31000388 0.22664362 0.22374871 0.46652973 -0.030779827 -0.46381906
-0.5299133 -0.73843306 -0.76495206 -0.81398946 -0.79212385 -0.46318078 -0.16233021 0.11688598
0.55024594 0.5900669 0.54590935 0.59694517 0.32671866 0.30225024 0.2805162 0.27906802
0.28854913 0.338546 0.30371138 0.30166832 0.31832448 0.30771455 0.28696623 0.2613865
0.46854958 0.43514413 -0.1479366 -0.36637697 -0.3621735 -0.5958456 -0.5906051 -0.47174442
-0.42911828 -0.32347137 -0.10922941 0.019607244 0.22436304 0.7313688 0.71069527 0.828149
0.55171406 0.29704732 0.32160786 0.2836755 0.3288933 0.30821505 0.31712654 0.29005215
0.32009307 0.30779955 0.32031074 0.6307553 0.2394786 0.053121094 -0.20375125 -0.37787503
-0.5580235 -0.6539589 -0.6715765 -0.70695865 -0.63589185 -0.31731042 -0.21462512 -0.11435831
0.08533164 0.39947194 1.155039 0.7139725 0.55220115 0.5207679 0.35827714 0.31833544
0.27771664 0.31404352 0.31860957 0.30375126 0.30034512 0.41647205 0.4413235 0.12670684
0.014266495 -0.18514366 -0.25171688 -0.57580334 -0.64049506 -0.6687912 -0.75648665 -0.78506273
-0.55249035 -0.39193103 -0.19906001 -0.09184353 -0.016512852 0.4400539 1.2118424 0.8230688
0.65051764 0.56800973 0.30443284 0.30444002 0.28931803 0.33257952 0.27090323 0.32151827

bias f4 [32]
00000000: 0ab4 90be 4460 12bf 0275 95be e8d1 16bf
00000010: 3a51 efbe 8f26 03bf 0bcd 41bf 10f4 10bf
00000020: 7644 18bf 45f3 91be 5b1f efbe 4531 29bf
00000030: a87b b6bf 0390 013f 7995 40bf c18a 14c0
00000040: fe88 17bf 5066 37bf bfc3 e4be 59c6 a4be
00000050: 91b9 4bbf 868c 0cbf b9ac 38bf 7e98 19bf
00000060: 92e8 40bf c9bb 28bf 270e 51bf 9145 8abf
00000070: 266b 46bf be23 88bf c511 29bf 44bf 41bf
-0.2826236 -0.5717814 -0.29190832 -0.5891404 -0.46741658 -0.5123071 -0.75703496 -0.5662241
-0.59479463 -0.28505912 -0.4670361 -0.66090804 -1.4256487 0.5061037 -0.7522808 -2.3209689
-0.5919341 -0.7164049 -0.44680592 -0.32182577 -0.79580027 -0.5490192 -0.72138554 -0.5999831
-0.75354874 -0.6591154 -0.8166222 -1.080248 -0.77507246 -1.0635908 -0.6604274 -0.75682473

weight f4 [10, 32]
00000000: cd3e d93e aea7 1f3f f8d9 ab3d f7e7 c1b9
00000010: feb5 2f3f 991f e23d 2e69 10bf 03cc 1cbf
00000020: 702b e8be ff04 743f f42c 023f 3080 1dbc
00000030: 76e3 68bf a059 263e 0c04 053f 2425 6b3f
00000040: 594a 39bf 44e9 c83e 8b40 f83c 2a03 a03e
00000050: 59d1 343e c30f 9f3e a0bb b53e 8b20 1e3f
00000060: 0661 863e 19c0 373f f361 543d c7cc a73e
00000070: c0ac a6be e26a 003f afa8 ac3e e83e 9ebe
00000080: 853b 9f3e 58b8 03bf ad1b babd 9fbc f0be
00000090: 1693 a63e 24d4 353e 06d1 da3d 1c6a 133f
000000a0: cfad eebe c52a f43e ed36 173f a6e2 1ebf
000000b0: 9768 2e3f 33d3 ed3d 9054 103f d23f ae3e
000000c0: 7cf5 ecbe ab64 10bf 1bc0 8e3e 1bd0 8e3e
000000d0: 1959 4c3e d6fa 993e 8ac4 36bf 7a72 09bf
000000e0: e80e b43e baad 003e c711 60bf a7d7 c6be
000000f0: 537e e03e 3d3e 013f 13ba 323f faef 01bf
00000100: 596a c13d eca7 ea3e fded 053f 8a2b c33d
00000110: 6a1c 353f a4a0 ce3e 13b1 603f 4b20 00bf
00000120: 0db2 213f 6803 813e 312d 323f 45db 21bf
00000130: 92a4 423e 0bc0 7f3e 17f3 24bf c2e1 3240
00000140: 1f10 2dbf 17c9 263d 27ec 13bd c175 043f
00000150: 9ac8 a03e 4baa f4bd 8852 11bf ef0d f63e
00000160: a9af 583e dd61 543f d22e 31bf 7b2e ec3d
00000170: 01e0 0e3e 5e6d 743e c57b 1e3f 7476 0ebf
00000180: 464e 703f 78ee ea3e 5ce3 c53e d944 7f3e
00000190: 9ec6 023f b9b5 5c3f d18e e63e 193c e0be
000001a0: 39f2 473e e1b7 ad3e ec4c a93e 65ed c33e
000001b0: 4696 673c e5ba af3e f0bc f9be c331 1740
000001c0: f910 0a3f c254 05bd 7cc2 563e c5cd ea3e
000001d0: 8685 693e 1f39 653f cb04 3fbf c52f 2f3f
000001e0: 858c aa3e 5c5a 783e f632 373f 0554 87bd
000001f0: 436e 02bf 01dd 9fbe 0d5c da3e 8ac3 4abf
00000200: 7513 593f ff5b 1fbf ab0f 14be f4d1 1f3e
00000210: 4dfb f13e e8e2 5abe 00ec a6be e0ce 083f
00000220: e6bf 23bf 46a9 233f 1b95 b63e 21d2 0bbf
00000230: f2aa 543e 0c9a bbbc 2da5 0cbf b38e 803f
00000240: 7586 1fbf 9f2f f0be da72 c33e 9c6e ae3e
00000250: 2b65 cd3e d0b7 5d3f 7e17 343e dc3c 08bf
00000260: de66 093f ce95 a83e 8fad 3b3f e2bb d03c
00000270: 9244 113f 3077 95be ece4 193f 0b86 dfbe
00000280: df80 08be 3814 3cbf a63e 3d3d 5182 8f3e
00000290: 9b58 0e3f 40a6 793d c9f7 aa3e 6d85 fa3e
000002a0: 3259 0cbf 9a23 a0bd e4cd 2cbe c420 48be
000002b0: f75a 9b3b 63e2 503e 0d12 293e 8629 cd3f
000002c0: 1920 fbbe 2a03 e4be 7d7d 00be 1b7a eb3e
000002d0: be08 05be c85d b4be 0825 1cbf ee5b ee3e
000002e0: c8f7 6a3e 6c1b e6bd cf39 51bf ebd6 e33d
000002f0: b7cc 99be 6c9a 11bf 6ddb 233e 858f 38bf
00000300: daa9 f7be 708b 2c3f aaac f9bd dc21 fd3e
00000310: 32d2 96be d838 643c d228 2bbd 3bac 2ebf
00000320: ad93 e93e 36a2 04bf 85e1 92be bc82 6cbf
00000330: 760d 9b3e b55e 7fbe 2d7e fa3e 0ec4 2d3f
00000340: 81dd 2f3f 89e9 633d 1bde 513f ec61 30be
00000350: f99a debe beb0 18bf 78b6 46bb 7922 27bf
00000360: d59e bd3d a3fb f6be 543f 84bf a5b0 a53d
00000370: 551d 05bf 7fb3 813e fc33 efbe ac23 213f
00000380: e06f 983d f783 07bf 5f79 f03e d6de 01bf
00000390: 95bf 4e3f c35c 06be 52b6 3ebf 2467 0abf
000003a0: a0f6 1dbf ce45 823e 4e8f f13e c5a9 963f
000003b0: 878c 043e 053f 843e 4d13 f83a 1c2e 4abf
000003c0: 56a0 053f cca5 ef3e b720 e9be c4f7 243f
000003d0: 711e 593e e478 3e3e 2f36 ee3e c6fc f0be
000003e0: 3122 093f 7dcc b23e 79f6 61bd 8a6f 963d
000003f0: 683a 8f3e 92eb 11bf 20a7 393f 18fb d03e
0.42430726 0.62365234 0.083911836 -0.00036984656 0.68637073 0.11041183 -0.5641049 -0.612488
-0.4534564 0.95320123 0.50849843 -0.009613082 -0.9097208 0.16245127 0.519593 0.9185355
-0.7237907 0.39240468 0.030304214 0.31252414 0.17657985 0.31066713 0.3549471 0.61768407
0.26245898 0.7177749 0.051851224 0.3277342 -0.32553673 0.5016309 0.33722445 -0.3090737
0.31100097 -0.5145316 -0.0908731 -0.47018906 0.32534093 0.17756706 0.10684399 0.57583785
-0.4661698 0.4768888 0.59068185 -0.6206459 0.6812834 0.11612549 0.5637903 0.34033066
-0.4628104 -0.5640361 0.2788094 0.27893147 0.19955863 0.30074185 -0.71393645 -0.536903
0.35167623 0.12566271 -0.87527126 -0.38836405 0.43846378 0.50485593 0.69815177 -0.507568
0.09444112 0.4583124 0.52316266 0.09529789 0.7074648 0.40356934 0.87770194 -0.50049275
0.6316231 0.2519791 0.69600207 -0.63225204 0.19008091 0.24975602 -0.64433426 2.7950292
-0.67602724 0.040719118 -0.036113884 0.5174218 0.31403047 -0.11946543 -0.5676656 0.48057505
0.21160759 0.8296183 -0.6921207 0.11532303 0.13952638 0.23869845 0.6190761 -0.55649495
0.93869436 0.45885062 0.38650024 0.24928607 0.51084316 0.86214787 0.45030835 -0.4379585
0.19525994 0.3392935 0.330665 0.38267055 0.014134949 0.34322277 -0.4877696 2.3624122
0.5393215 -0.032551534 0.20972627 0.45860115 0.22804841 0.89540285 -0.7461669 0.68432266
0.33310333 0.2425322 0.71562135 -0.06607822 -0.50949496 -0.312233 0.42648354 -0.7920462
0.84795314 -0.6224975 -0.14459102 0.15607435 0.4726204 -0.2137562 -0.3260193 0.53440666
-0.6396469 0.63930166 0.35660633 -0.54617506 0.20768335 -0.022900604 -0.5493954 1.0043548
-0.6231454 -0.46911332 0.38173562 0.34068763 0.40116248 0.866086 0.17587087 -0.53217864
0.5367259 0.32926792 0.73311704 0.025480215 0.56745255 -0.29192495 0.6011493 -0.43656954
-0.1333041 -0.7346835 0.046202324 0.2802911 0.5560395 0.060949564 0.3339217 0.4892992
-0.548236 -0.078192905 -0.16875416 -0.19543749 0.0047410685 0.2039886 0.16510792 1.6028297
-0.49047926 -0.44533664 -0.1254787 0.45991597 -0.12991616 -0.352278 -0.60994005 0.46554512
0.22946084 -0.11235699 -0.81728834 0.11124977 -0.30038998 -0.56876254 0.16001673 -0.72093993
-0.48371774 0.67400265 -0.12191136 0.49439895 -0.2945724 0.013929568 -0.041786976 -0.6823155
0.4562048 -0.51810014 -0.28687683 -0.92386985 0.30283707 -0.24938472 0.4892439 0.6787728
0.68697363 0.05564264 0.8197953 -0.17224854 -0.4347761 -0.5964469 -0.0030321162 -0.65286976
0.092588104 -0.4823886 -1.0331826 0.08090333 -0.5199788 0.25332257 -0.46719348 0.62945056
0.074432135 -0.5293574 0.469676 -0.50730646 0.8076108 -0.13121323 -0.7449695 -0.5406363
-0.61704445 0.25443882 0.47179645 1.177056 0.12944232 0.2582933 0.001892665 -0.7897661
0.5219778 0.4680618 -0.45532772 0.6444056 0.21203019 0.18600804 0.46525714 -0.4706785
0.53567797 0.34921637 -0.055166695 0.07345493 0.27974248 -0.57000077 0.7252064 0.4081657

bias f4 [10]
00000000: 36f9 14bf 310c 97bf 5324 9e3d 9bfd 82c0
00000010: d4e2 a43f a8a2 b43f 22f4 9b40 dfe5 8ac0
00000020: 77ba 0940 e92b 48c0
-0.58192766 -1.1800596 0.07721772 -4.0934577 1.2881722 1.4112139 4.8735514 -4.3405604
2.152006 -3.12768
