model_ft_0.1_15_512.pth (torch, 104469 bytes, 4 tensors)

layers.0.weight f4 [32, 784]
00000000: 5cfa 8ec2 222b 39c2 1fdf a03f ddbb a741
00000010: 2c6c b941 8e53 aec0 2b70 3b42 fdac 6e41
00000020: 81c8 50bd 4a2d 88c2 14b8 acc1 c7c2 9fc0
00000030: 9050 9642 9567 e541 286c 7d41 000c 7d42
00000040: ae97 38c1 9f57 d342 e7f2 9542 7b04 4542
00000050: 510b 1c42 8445 5142 5af7 34c1 20c9 ef3f
00000060: 9f71 233f a52c 9742 6f88 ed42 013d 4540
00000070: 632d a842 4217 97c2 7ca7 4a42 aed5 2640
00000080: 220b 9e42 70c6 2dc1 00e9 8b42 207a c042
00000090: a827 4841 4c25 c9c0 034f ecc1 a794 8242
000000a0: 579b c1c1 5095 3c42 be99 f941 1493 86c0
000000b0: 84a0 0942 ef4b e7c1 566b 6a42 1fd3 4ac2
000000c0: 1410 0b41 bac0 0ec1 e01b ee41 1155 d241
000000d0: d63c edc0 1eaa c442 3a93 b141 9142 a6c0
000000e0: cb29 27c1 1b84 83c1 9dc5 7cc0 f5b4 eac2
000000f0: e4f6 3742 0a1d 8341 4d21 f441 c0f4 26c2
00000100: db7f 4fc0 a836 16c2 978a 83c1 779d 2fc2
00000110: 6135 a8c2 f2f0 8842 fb6e d6c1 4105 48c0
00000120: 516d 2bc0 403c 1542 c3d8 3dc2 8dfe 8cc1
00000130: 29f0 29c1 72f5 e642 11e1 7fbf e7bf 7041
00000140: 44d5 b3c1 6723 d3c1 3153 cf41 216e 51c1
00000150: 8e81 d040 3252 2cc2 77b8 0142 2b58 0ac1
00000160: 78ab 1c42 b115 acc2 50ad 4c42 44d6 b6c1
00000170: b078 9141 3458 4540 5145 bd40 1b48 4c42
00000180: 654f 8e42 5819 48c2 98f1 f4c1 25e2 ec41
00000190: d04e 8c40 fe25 84c1 ce6b 3ac1 63a9 5c40
000001a0: b484 8b42 b8da 72c1 876e 3bc2 cd6e 4541
000001b0: dd9f ce41 5ae9 acbe 87bc 0641 e1e3 06c1
000001c0: 5c0b 343f cac0 2442 9996 16c2 c49e 4742
000001d0: 2a0d e842 4311 53c2 9ef7 e4c1 977a 76c2
000001e0: c9eb 4a40 25f2 70c1 cfab 5dc2 a346 3d41
000001f0: 4ced 1f42 2c8d 8542 5175 f741 ec00 ca41
00000200: 0a35 51c2 2a3f 0c42 115f 29c2 3979 9ac1
00000210: 3874 99c1 58ac 2d42 a097 3542 2d2f 68c1
00000220: 8e5b 90c1 33c6 c3c2 dc30 ff41 0812 e542
00000230: 2987 0140 31bc d941 5e32 47c2 d37e 4542
00000240: e550 46c2 28c2 0342 5545 e741 87c4 be40
00000250: e77a 4842 656b f0c1 00ce e2c1 1814 c9c2
00000260: 65c3 f1c0 97ca adc1 c8d3 fec1 96e9 4041
00000270: bae1 bb3f e95e b341 3975 1fc2 183c 37c1
00000280: 9e84 50c0 e6b9 abc2 1acb 01c2 8377 66c2
00000290: 3f8a 1942 eaec 9ac2 4245 0742 6862 1742
000002a0: 114a 07c2 aa13 9641 7698 c3c1 f51a d041
000002b0: 7c0f a440 984d 8242 2c29 97c1 6695 de41
000002c0: 9a56 2cc2 856a 8941 b2d4 8f42 b315 65bd
000002d0: 35a8 e6c1 dc98 9a41 ae3c cdc1 1045 4bc2
000002e0: 8353 5fc2 726f 53c2 de32 9dc2 2188 c7c2
000002f0: 29b6 20c2 975b 97c2 fabf 1fc2 16ff 0042
00000300: 7d56 39c2 6f46 93c1 85d5 6fc0 7eec 2c42
00000310: 1ca0 8142 5e6a c4c1 308a 22c0 d68e dcc0
00000320: 3742 d6c1 c493 1d42 35a4 1a41 7926 14c2
00000330: c3cc 5e42 ba1e 4e42 03e3 37c2 cea4 c2c1
00000340: 2505 99c0 c415 64c2 5d36 4542 91a0 15c1
00000350: e5e8 b0c2 1721 b241 5912 c3c2 0c97 1b42
00000360: 96de 2fc1 aca3 f140 7478 4141 3768 f240
00000370: 872f 7041 f3f9 93c0 de19 7c41 08b5 c242
00000380: 54e1 3641 1ffd fdc1 ae08 6842 4321 86c1
00000390: fb05 55c1 b072 8d42 9a9c 5942 990b 84c0
000003a0: 5e63 1a41 58f3 3d42 caa4 c841 749e 68c2
000003b0: 6633 e6c1 63a1 24c2 8f9b 2bc2 b3ae b3c2
000003c0: 3520 9e42 651f 4fc0 8190 a442 b8d4 58c2
000003d0: ffb2 c1bf 07c5 0e42 5e7a da41 11d6 13c1
000003e0: 15b8 bc41 b451 0ac2 9e70 56c2 69ea 42c2
000003f0: e9dc c841 8499 e641 0574 83c1 4473 e2c1
-71.48898 -46.29212 1.2568091 20.96673 23.177818 -5.4476995 46.85954 14.917233
-0.050972465 -68.088455 -21.589882 -4.9925265 75.15735 28.675577 15.838905 63.26172
-11.537031 105.671135 74.97442 49.254375 39.01105 52.317886 -11.310389 1.8733253
0.6384525 75.5872 118.76647 3.0818484 84.088646 -75.545425 50.66356 2.606792
79.02174 -10.860947 69.95508 96.238525 12.509682 -6.285803 -29.53858 65.29034
-24.20085 47.145813 31.20007 -4.205454 34.406754 -28.912077 58.60482 -50.706173
8.691425 -8.922052 29.76361 26.291536 -7.4136763 98.33226 22.196888 -5.195626
-10.447703 -16.439505 -3.9495614 -117.35343 45.991104 16.38918 30.51626 -41.739014
-3.2421787 -37.553375 -16.44267 -43.903774 -84.104256 68.4706 -26.80419 -3.1253207
-2.6785471 37.308838 -47.46168 -17.624292 -10.621133 115.479385 -0.999528 15.046851
-22.479134 -26.392286 25.91562 -13.089387 6.515815 -43.08027 32.43014 -8.646525
39.16745 -86.042366 51.16925 -22.854622 18.18393 3.0835085 5.9147115 51.070415
71.15507 -50.02475 -30.617966 29.610422 4.3846207 -16.51855 -11.6513195 3.4478385
69.759186 -15.178398 -46.857937 12.339551 25.828058 -0.33771783 8.421027 -8.4306345
0.70329833 41.18827 -37.647068 49.905045 116.02571 -52.766857 -28.620907 -61.619717
3.1706412 -15.059117 -55.41778 11.829745 39.981735 66.77573 30.932283 25.25045
-52.301796 35.061684 -42.34284 -19.30919 -19.181747 43.418304 45.39807 -14.511518
-18.044704 -97.88711 31.898857 114.53522 2.0238745 27.21689 -49.799187 49.37385
-49.579 32.939606 28.908854 5.96149 50.12002 -30.052439 -28.350586 -100.539246
-7.555102 -21.72392 -31.853409 12.057028 1.4678261 22.421343 -39.864475 -11.452171
-3.2580943 -85.86308 -32.44834 -57.61671 38.385006 -77.46272 33.817635 37.8461
-33.82233 18.759602 -24.449444 26.013163 5.12689 65.15155 -18.895103 27.822948
-43.08457 17.177011 71.91542 -0.055928897 -28.832132 19.324638 -25.654629 -50.817444
-55.831554 -52.858833 -78.59935 -99.76588 -40.17789 -75.67889 -39.937477 32.249107
-46.33446 -18.409391 -3.7474072 43.23095 64.81271 -24.551937 -2.5396843 -6.892436
-26.782331 39.394302 9.66509 -37.03757 55.699963 51.530006 -45.97169 -24.330471
-4.781878 -57.021255 49.30309 -9.351701 -88.45487 22.266157 -97.535835 38.897507
-10.991842 7.5512295 12.0919075 7.5752215 15.011603 -4.6242614 15.756315 97.35358
11.430012 -31.748594 58.008476 -16.766241 -13.31396 70.724 54.40293 -4.1264157
9.64926 47.48764 25.080463 -58.15474 -28.775097 -41.157604 -42.901913 -89.84121
79.062904 -3.2362912 82.282234 -54.207733 -1.513275 35.69241 27.30975 -9.239762
23.589884 -34.57979 -53.609978 -48.728916 25.107866 28.824959 -16.43165 -28.306282

layers.0.bias f4 [32]
00000000: 72ec 5a42 06d6 fdc1 83cf 82c2 031e 49c2
00000010: 3477 3a41 1dc8 16c0 6804 c5c2 d6b8 94c1
00000020: 4cdd 09c2 0198 93c2 e3bc 0141 b818 5042
00000030: ac33 4ec2 c076 4640 58d8 2042 959b 7542
00000040: 0e4b b73f 0d88 a842 1649 45c2 c99a 4a42
00000050: 8298 82c2 65c9 3c42 d77f ccc1 e9b4 0a40
00000060: 7d56 1442 4bb0 ce40 cad3 edc1 4495 6941
00000070: 1466 05c2 a266 98c1 6069 8440 74ee 18c1
54.730904 -31.729504 -65.4053 -50.27931 11.654102 -2.355964 -98.508606 -18.590252
-34.46611 -73.79688 8.108615 52.02414 -51.55046 3.100998 40.211273 61.401936
1.431978 84.265724 -49.321373 50.651157 -65.29787 47.196674 -25.562422 2.1672919
37.08446 6.45902 -29.728413 14.598942 -33.349686 -19.050114 4.137863 -9.558216

layers.2.weight f4 [10, 32]
00000000: 8df3 94c2 a662 3bc2 6e34 6ac1 9632 3840
00000010: 52d1 65c2 c51f 603f b08f 2ac0 f1ba 75c0
00000020: c9ea 72c2 1b47 d3c0 873e ab41 8829 f3c0
00000030: f1ef e741 e53f 8dc1 1690 5342 d40b 9d3f
00000040: ced2 2541 aab1 a9c1 0ce6 a2c1 197e a041
00000050: 3fd5 06c2 f136 2740 6a6a 973f e337 c240
00000060: e484 bec1 9a94 05c1 eb7a 9f41 3859 b140
00000070: 6dd0 f7c0 f388 8641 f2bf 4942 3b87 2c3f
00000080: 5370 8bc2 6598 f040 de7f 75c1 6606 2f40
00000090: 75c7 ab41 3690 9f3f b704 9241 920b 35c0
000000a0: afc2 0441 b1bb 59c1 da5f 40c0 df71 efc0
000000b0: 2307 ca41 0766 88c1 d78f 84c1 646e 3740
000000c0: dc05 2c41 a09a a4c1 19b4 32c2 f859 c5c2
000000d0: 4dc4 bac2 b49d 8dbf 500b 69c0 933c ce40
000000e0: 21ab c9c1 2775 6dc2 ae2e a541 ac63 b041
000000f0: 17fa 0642 6148 83c1 90f4 87c2 3991 3dc1
00000100: f395 97bf 296a ea40 033c 53c1 84d6 1540
00000110: 0c47 a741 b707 a43e 98bd 9d41 0a76 4fc0
00000120: 0285 2042 3308 dfc0 48b9 ed40 6916 e6c0
00000130: 5323 f7c1 f39f 83c1 2969 e3c2 c308 1a40
00000140: 87e5 2941 18e6 a8c1 31c9 a4c1 4fa6 9e41
00000150: 0358 72c0 7ad0 31c1 2f7b 9d3f ff1c b240
00000160: 8bb4 c5c1 132f 13c1 4a28 9d41 18bc b041
00000170: 20f0 2ac2 a72f 5541 8f91 81c1 1f0a a23f
00000180: dc60 88bf 2636 a740 ff14 6ac1 da96 3d40
00000190: f792 5bc1 cf09 c13f aef9 3d41 7d38 51c0
000001a0: 9428 4842 72f6 c4c0 bb04 ae41 c9b5 e6c0
000001b0: df22 0042 6d51 80c1 5cca 59c1 eec9 4140
000001c0: 02a7 1e41 de89 aac1 d007 e4c1 858d a441
000001d0: cea6 63c0 995b 8a40 b392 c73f d2a1 ce40
000001e0: 8c0d c6c1 a17e 07c1 b622 a041 5be5 ae41
000001f0: d75e 34c0 bfee 86c1 9b7a 4842 b195 c83e
00000200: e7f5 87bf 071e f240 4d13 c9c1 45cd 2c40
00000210: dab3 a841 ca92 983f 89df 4641 7aa8 21c1
00000220: bf6b ac41 65fc d3c0 e95b ab41 b4e4 f8c0
00000230: 1fec 0042 064a 8ec1 1b24 72c1 abbb 7140
00000240: 63c2 2541 7a29 a9c1 0387 9fc1 dd6a 9fc1
00000250: 0877 7cc1 1fd3 9640 8d6c 933f 22a9 d040
00000260: 1ab2 c3c1 e78c 03c1 f625 a041 cd61 d2c1
00000270: 8e28 4242 743b 8641 390a 1e3f 6adc 183f
00000280: f614 8fbf 1cff 7ac2 ce01 6cc1 b207 3a40
00000290: e370 a941 1ae2 6b3f b362 2541 8cb9 41c0
000002a0: fec6 3e42 8f05 d4c0 badf aa41 9ce8 efc0
000002b0: fd90 0142 c384 84c1 a9f4 4d42 d1ec 0540
000002c0: c4bd 2641 b653 a8c1 3215 a6c1 bcce 9d41
000002d0: 0ce6 78c0 e0d0 9440 3d38 743f 9c10 bd40
000002e0: 6b82 c3c1 b25c 03c1 d4a1 a241 8ffe 63c1
000002f0: c76b 10c2 c32e 8641 269b 4742 02f5 563f
00000300: cfcf 90bf 3b4d d540 25fa d3c1 e6f1 3b40
00000310: 4ff0 60c1 248e a6c1 5058 d340 0160 67c0
00000320: a1a1 15c2 9fd9 a43f 7d02 ab41 71b9 e7c0
00000330: 5a9d 32c2 7b2c 87c1 c0ee 3f42 70a9 8c40
00000340: c412 1c41 9dfd a6c1 67d7 a3c1 78be 2ac2
00000350: ec60 9cc0 7fbc 78c1 8322 7c3f 2028 ab40
00000360: 73ff c3c1 3fa6 06c1 ec07 9e41 d2e8 b041
00000370: 2d84 4242 bc7c d9c2 ac95 5b41 5d80 0040
00000380: 7112 8cbf e4c0 db40 1053 70c1 e7ea 3f40
00000390: edad 9d41 a29c 693f 3fbf 4fc2 a034 8dc0
000003a0: 5353 2441 5a8a eec0 c14c ac41 fb43 f4c0
000003b0: 98a1 16c2 8794 bac1 f57f 4b42 87d5 2240
000003c0: 5d95 2141 8df9 a7c1 0d54 a5c1 7150 a241
000003d0: f196 65c0 202a b640 907a 623f e69b cc40
000003e0: 7044 cbc1 822c 0ec1 e174 9d41 d40b 04c2
000003f0: 2e2d d9c1 83c5 abc1 40f7 4942 6d9c 84c2
-74.475685 -46.846336 -14.6378 2.8780875 -57.454414 0.87548476 -2.66502 -3.839535
-60.729282 -6.60243 21.40553 -7.5988197 28.992159 -17.656199 52.89071 1.2269235
10.363966 -21.21175 -20.362328 20.061571 -33.70825 2.6127284 1.182935 6.069322
-23.814888 -8.34878 19.935019 5.542141 -7.7441926 16.81687 50.437447 0.67393845
-69.71938 7.518603 -15.343718 2.7347655 21.472391 1.2465885 18.252302 -2.8288312
8.29753 -13.608323 -3.0058503 -7.4826503 25.253485 -17.049818 -16.570234 2.8661127
10.7514305 -20.5755 -44.675877 -98.67572 -93.3834 -1.1063752 -3.6413155 6.4448943
-25.208559 -59.364407 20.647793 22.048668 33.74423 -16.410341 -67.97766 -11.847955
-1.1842636 7.325459 -13.202151 2.341218 20.90969 0.32037136 19.717575 -3.2415795
40.12989 -6.969751 7.4288673 -7.1902356 -30.892248 -16.4531 -113.70539 2.4067848
10.618537 -21.11235 -20.598238 19.831205 -3.7866218 -11.113398 1.2303218 5.5660396
-24.713156 -9.198993 19.644672 22.091843 -42.734497 13.324134 -16.196074 1.2659339
-1.0654559 5.22536 -14.630126 2.9623322 -13.72338 1.5081118 11.873457 -3.2690728
50.039627 -6.1550837 21.75231 -7.2096906 32.034054 -16.039759 -13.611904 3.0279498
9.915773 -21.317318 -28.503815 20.569101 -3.557056 4.3236814 1.5591644 6.4572535
-24.756615 -8.468415 20.016949 21.86199 -2.8182886 -16.866575 50.11973 0.39176705
-1.0621918 7.5661654 -25.134424 2.7000287 21.087818 1.1919796 12.429574 -10.103632
21.55261 -6.62456 21.419878 -7.777918 32.230587 -17.786144 -15.133815 3.7770793
10.359958 -21.145252 -19.940924 -19.92718 -15.77906 4.7132716 1.1517502 6.520646
-24.461964 -8.2219 20.018536 -26.297754 48.539604 16.77903 0.6173435 0.59711325
-1.1178272 -62.74913 -14.750441 2.9067197 21.18012 0.9214188 10.3365965 -3.02695
47.69433 -6.6256785 21.359241 -7.4971447 32.39159 -16.564825 51.488926 2.0925791
10.4213295 -21.040874 -20.76035 19.725945 -3.889041 4.6504974 0.9539831 5.9082775
-24.43868 -8.210131 20.329018 -14.249648 -36.10525 16.772833 49.901512 0.839676
-1.1313418 6.6656775 -26.49714 2.9366393 -14.058669 -20.819405 6.6045303 -3.6152346
-37.40784 1.2878913 21.376215 -7.241387 -44.653664 -16.896719 47.983154 4.3956833
9.754581 -20.873835 -20.480177 -42.686005 -4.8868313 -15.54602 0.9849016 5.348648
-24.499731 -8.415587 19.753868 22.113682 48.629078 -108.74362 13.724041 2.0078347
-1.0943128 6.867296 -15.020279 2.9987123 19.709925 0.9125463 -51.936764 -4.412674
10.270343 -7.4543886 21.537477 -7.6332984 -37.657806 -23.322523 50.874958 2.5442827
10.098966 -20.996851 -20.66604 20.289278 -3.5873377 5.692642 0.88468266 6.3940306
-25.408417 -8.885866 19.68207 -33.01155 -27.14706 -21.471441 50.491455 -66.30552

layers.2.bias f4 [10]
00000000: 40cc 3342 1c4a 03c2 f669 25c0 e3fa a5c1
00000010: 8c2c 3442 4af7 0941 e514 eebf 1cea b941
00000020: dc96 09c2 66ab 3442
44.949463 -32.822372 -2.5845923 -20.747503 45.043503 8.622873 -1.8600127 23.239311
-34.397324 45.16738
